Project Navigation/checkpoint.pth (torch_old, 28417 bytes, 6 tensors)

fc1.weight f4 [64, 37]
-0.079310924 -0.11414423 -0.20975514 0.10890049 -0.22720802 -0.0012275986 -0.00957779 0.2503307
0.01963193 0.02031275 -0.40543744 -0.19420876 0.17028792 -0.029491678 0.35911196 -0.12605163
0.19342715 -0.025268964 -0.1453418 -0.030027548 -0.021828469 0.012374081 0.18862729 -0.043753944
-0.09032796 0.13613923 -0.09362736 -0.09866573 -0.18056127 -0.35183772 0.07928786 0.15893537
-0.3466547 -0.017050354 -0.25567824 -0.083448395 -0.12203646 0.09018812 0.118322335 0.14974576
0.11313006 0.015687168 0.20137091 -0.34703362 -0.12946306 -0.5825711 -2.4287019 0.078917354
0.1136279 0.064584546 0.09124483 0.02914018 0.027695397 0.0021050845 0.12875973 0.16460717
0.076462716 -0.023575984 -0.017011186 -0.101236 -0.08921789 0.057991203 0.10025373 0.05473157
-0.095866255 0.008877192 -0.028058253 0.085538745 0.17302434 0.16070807 0.026600374 0.04028357
-0.02322593 0.0134159755 -0.5880865 0.38404953 0.12029017 -0.087192185 -0.44309253 -0.53055584
0.28750226 0.14507115 -0.35639867 -1.0294629 0.011178946 -0.10688041 -0.085377105 0.06513829
-0.08352967 -0.556353 0.22260594 0.23741873 -0.3164803 -0.84458774 -0.33618477 0.026566012
0.19861394 0.02795656 -0.0963596 -0.38188654 0.25056863 0.18087119 -0.20699114 -0.85471624
-0.27123162 -0.033950783 0.03471534 -0.4824379 -0.045633826 0.0143477125 -0.0051581366 0.32770696
-0.005618758 0.09410537 -0.10921826 -0.1979587 0.05290215 -0.031511948 -0.08087422 0.17682265
0.2397631 -0.04955427 -0.029582387 0.0507527 -0.048971545 -0.030329222 0.15240178 -0.518662
-0.2853207 -0.21989694 -1.5263864 -0.20792346 0.089655474 0.06989509 0.103520155 0.22211835
-0.0014047505 -0.07055489 0.08750667 0.2659732 0.33033422 0.004172376 0.014717521 0.19478364
0.09069199 -0.08123904 0.015265902 -0.05294161 0.2609614 -0.63006866 -0.40940985 -0.50736123
-2.0013192 0.08601582 0.14310494 0.053058084 0.121519156 -0.16162576 0.0011761517 0.06470456
-0.06033777 -0.21840592 -0.18745123 -0.101432 0.008620395 -0.068863206 0.02710815 -0.021130228
0.012175199 -0.04221943 0.035942227 0.016621124 0.05857118 0.045741983 0.05598446 -0.014822675
0.114595585 -0.0229041 -0.004667752 -0.048827585 0.11984337 0.21904068 0.1960264 -0.042267237
0.022100834 0.08934383 -0.18094997 -0.09377193 0.079674296 0.07750525 0.060333982 0.17070165
-0.38058555 -0.04268357 -1.8722924 -0.008633554 -0.1631144 -0.16444993 0.013240867 0.012583148
-0.013935987 0.017281663 -0.08697863 0.024621323 -0.044170585 -0.008401462 0.15867539 0.011444508
0.042672575 -0.20168267 -0.047969766 0.17926681 -0.16491686 0.0327891 0.12745771 -0.19811222
0.15923701 -0.23023057 0.245013 -0.29917586 -0.0003901438 0.021606354 0.22232117 -0.17374714
-0.16515167 -0.5938997 -0.1460947 -0.609032 -0.05207063 0.19857436 -0.073533475 -0.023367086
-0.29064938 0.37524164 -0.23991852 -0.12443136 0.29192892 -0.16437767 -0.2235186 -0.14914751
-0.022049144 0.027912602 -0.028608462 -0.13392828 -0.33776936 0.070836864 0.3810734 0.16372865
-0.0012081366 -0.36733204 -0.21094254 -0.024168404 0.14147861 0.0024283116 -0.18372665 -0.27729005
00000000: c46d a2bd 73c4 e9bd 0dca 56be 3807 df3d
00000010: 38a9 68be 60e7 a0ba 2aec 1cbc 582b 803e
00000020: 24d3 a03c ed66 a63c 7f95 cfbe a9de 46be
00000030: f55f 2e3e 8898 f1bc 86dd b73e ae13 01be
00000040: c411 463e dc00 cfbc 7bd4 14be 55fc f5bc
00000050: 9ed1 b2bc a8bc 4a3c 8327 413e 5637 33bd
00000060: defd b8bd 1568 0b3e b4bf bfbd 4211 cabd
00000070: 0ee5 38be 1324 b4be ac61 a23d f4bf 223e
00000080: ba7c b1be 2fad 8bbc 42e8 82be fee6 aabd
00000090: 40ee f9bd 8db4 b83d fb52 f23d f456 193e
000000a0: bcb0 e73d 6082 803c 2d34 4e3e 64ae b1be
000000b0: f791 04be 6123 15bf da6f 1bc0 6c9f a13d
000000c0: bfb5 e83d e744 843d 92de ba3d 63b7 ee3c
000000d0: 75e1 e23c 75f5 093b 97d9 033e c88e 283e
000000e0: 7c98 9c3d 6c22 c1bc 0b5b 8bbc d254 cfbd
000000f0: deb7 b6bd 2f88 6d3d d451 cd3d 362e 603d
00000100: 8755 c4bd a471 113c 6cda e5bc f02e af3d
00000110: 4b2d 313e a890 243e 07e9 d93c 6200 253d
00000120: 4e44 bebc aece 5b3c d68c 16bf 24a2 c43e
00000130: b15a f63d d191 b2bd 06dd e2be 82d2 07bf
00000140: 7f33 933e 888d 143e e379 b6be 71c5 83bf
00000150: e627 373c 1ee4 dabd 31da aebd 3967 853d
00000160: 9b11 abbd 266d 0ebf d0f2 633e e51d 733e
00000170: b509 a2be e736 58bf 6920 acbe f7a0 d93c
00000180: 7461 4b3e 2805 e53c 2f58 c5bd a286 c3be
00000190: 884a 803e 4c36 393e 7cf5 53be afce 5abf
000001a0: dfde 8abe fa0f 0bbd ac31 0e3d 1a02 f7be
000001b0: 89ea 3abd ab12 6b3c 9605 a9bb 35c9 a73e
000001c0: 8f1d b8bb 51ba c03d d3ad dfbd afb5 4abe
000001d0: edaf 583d ac12 01bd 62a1 a5bd ff10 353e
000001e0: 7584 753e 6bf9 4abd c356 f2bc 10e2 4f3d
000001f0: 6396 48bd fd74 f8bc 360f 1c3e 08c7 04bf
00000200: 8e15 92be aa2c 61be a160 c3bf e3e9 54be
00000210: 4a9d b73d 2825 8f3d 6002 d43d fe72 633e
00000220: 9b1f b8ba 157f 90bd b236 b33d a42d 883e
00000230: 9121 a93e 6db8 883b c221 713c 5d75 473e
00000240: b9bc b93d a760 a6bd d51d 7a3c 4dd9 58bd
00000250: bc9c 853e 2e4c 21bf 2b9e d1be 6de2 01bf
00000260: 9d15 00c0 1029 b03d 1a8a 123e 6f53 593d
00000270: 09df f83d 3981 25be 1a29 9a3a d383 843d
00000280: bd24 77bd cda5 5fbe 37f3 3fbe 95bb cfbd
00000290: 8f3c 0d3c 2708 8dbd e911 de3c 4d19 adbc
000002a0: 7c7a 473c 48ee 2cbd 2838 133d 0629 883c
000002b0: 55e8 6f3d f25b 3b3d f64f 653d ceda 72bc
000002c0: 17b1 ea3d 61a1 bbbc f1f3 98bb 6fff 47bd
000002d0: 7170 f53d 334c 603e 25bb 483e 6920 2dbd
000002e0: cf0c b53c e6f9 b63d f34a 39be 7f0b c0bd
000002f0: 472c a33d 13bb 9e3d c420 773d 6acc 2e3e
00000300: 1cdc c2be f8d4 2ebd 47a7 efbf c073 0dbc
00000310: 7607 27be 9065 28be 39f0 583c 8c29 4e3c
00000320: c453 64bc 4692 8d3c da21 b2bd a8b2 c93c
00000330: 37ec 34bd 49a6 09bc cd7b 223e bf81 3b3c
00000340: 70c9 2e3d e785 4ebe f27b 44bd b891 373e
00000350: f7df 28be dd4d 063d 4684 023e eedd 4abe
00000360: 070f 233e 90c1 6bbe b0e4 7a3e 942d 99be
00000370: 378c ccb9 cfff b03c 29a8 633e c5ea 31be
00000380: 851d 29be d009 18bf d999 15be 85e9 1bbf
00000390: 0348 55bd 1457 4b3e b898 96bd 556c bfbc
000003a0: ffcf 94be ac1f c03e 33ad 75be ded5 febd
000003b0: b577 953e 9f52 28be 0fe2 64be 20ba 18be
000003c0: 68a0 b4bc f8a8 e43c 4b5c eabc 7f24 09be
000003d0: 1bf0 acbe eb12 913d 0d1c c33e 7ca8 273e
000003e0: 565a 9eba f212 bcbe 5201 58be d1fc c5bc
000003f0: c5df 103e 4f24 1f3b d722 3cbe f6f8 8dbe

fc1.bias f4 [64]
0.029803794 0.029232668 -0.03845044 -0.105149895 0.16263969 -0.075773396 -0.10423948 0.105645895
-0.046694648 -0.21563022 0.32969245 0.2655935 0.12449647 0.26229936 -0.06408887 -0.092592046
0.09401885 0.03777348 0.06603174 -0.16141693 -0.1319664 0.040766563 -0.042252317 -0.04182501
-0.09227503 0.14543398 -0.07768121 -0.10995253 0.016807243 0.057454474 -0.09080348 -0.15357335
0.14877935 0.004572024 -0.16194303 0.055242922 -0.0637567 -0.034637865 -0.053458586 -0.062399022
-0.0669526 -0.0107207885 0.06042743 0.080557704 -0.026878528 -0.0013445403 -0.0237173 -0.15896997
-0.34593466 -0.015655302 -0.14393145 0.060930144 0.10304671 -0.06928234 -0.20517871 -0.027289063
0.007494226 -0.111756794 -0.193499 -0.11625695 -0.0061705103 -0.016857846 0.08861821 0.06361037
00000000: 1627 f43c 5979 ef3c 357e 1dbd d458 d7bd
00000010: 058b 263e 152f 9bbd 827b d5bd e05c d83d
00000020: e342 3fbd 2bce 5cbe 73cd a83e dffb 873e
00000030: 01f8 fe3d 1a4c 863e 0741 83bd e6a0 bdbd
00000040: f48c c03d 5db8 1a3d a63b 873d 7b4a 25be
00000050: 3322 07be d7fa 263d c410 2dbd b450 2bbd
00000060: b1fa bcbd a5ec 143e 5417 9fbd cb2e e1bd
00000070: 58af 893c 6255 6b3d 2df7 b9bd 5542 1dbe
00000080: 9d59 183e ebd0 953b 65d4 25be 6746 623d
00000090: df92 82bd 6fe0 0dbd 64f7 5abd 1e96 7fbd
000000a0: 721e 89bd 3fa6 2fbc c182 773d 70fb a43d
000000b0: 5c30 dcbc 493b b0ba c84a c2bc 06c9 22be
000000c0: 591e b1be 8c3f 80bc c462 13be e391 793d
000000d0: 270a d33d e6e3 8dbd 5e1a 52be 508d dfbc
000000e0: 2092 f53b bfe0 e4bd 9a24 46be 2018 eebd
000000f0: fe31 cabb 7719 8abc 777d b53d 2746 823d

fc2.weight f4 [64, 64]
0.104618974 0.38553032 -0.1132067 -0.037408426 -0.10175932 0.12014848 0.07743882 -0.054014932
0.13902952 0.294901 -0.00718903 -0.45838952 -0.23212893 0.13799825 -0.17808346 0.10785462
0.14244984 0.16432166 0.050621066 -0.035840526 0.13015172 0.20995206 -0.17300142 -0.30726188
-0.50027025 -0.9230003 -0.12632884 0.08014622 0.03055055 -0.07270417 -0.19408566 -0.13604674
-0.0023689414 -0.38035163 -0.051396806 -0.3303962 0.116602115 0.102078535 -0.21194078 -0.14281765
-0.4074581 -0.10317505 0.60665566 -0.07480163 0.014316764 -0.2848772 -0.029489715 -0.029991176
-0.03818532 0.13396904 -0.52528447 0.46331942 0.095557645 0.025476344 0.102042526 0.09240118
-0.16492634 0.010433669 -0.019588487 0.32764697 0.095846504 -0.03636929 -0.56195325 -0.55514854
-0.16028535 0.19817811 -0.49614793 -0.095646 0.12088502 0.01950359 -0.10870162 0.09995946
-0.46185583 0.37852648 -0.055428747 0.3749138 -0.82221305 -0.022985557 0.24266763 -0.11135646
-0.09202569 0.13789856 -0.31130764 0.07082331 -0.0040952563 -0.22878675 0.08106905 -0.3571614
-0.13974549 0.12750082 -0.03499751 -0.09380136 -0.06800756 0.21998282 0.032575555 0.021829274
0.061642114 0.044349108 -0.10890235 0.11610622 -0.09021481 0.041439746 0.05756467 -0.33435944
-0.04639557 -0.013035836 -0.015119911 -0.13342735 -0.15596199 -0.12419902 0.15067558 0.048368704
-0.21310794 -0.07196995 -0.15819773 0.08797139 -0.11903259 -0.56710416 -0.046820562 0.10556551
0.17641315 0.063870065 0.15515578 0.34617317 -0.25512755 -0.14137782 -0.30493882 -0.42666605
0.117842205 -0.23129128 -0.6231732 -0.15939076 0.20715314 -0.20894282 0.021639004 -0.0042639934
0.13587093 -0.21455574 -0.08547447 0.06673072 0.24242468 0.005840014 0.098776475 0.036246013
-0.20122164 0.077971846 0.06103771 -0.08189018 -0.037366625 0.2835131 -0.19126238 0.37220892
-0.115118295 -0.42448515 0.17683177 -0.34835684 0.00023523989 -0.15930901 0.13654338 0.35160568
0.06996277 -0.35195 -0.35938427 -0.20771633 0.0754034 0.14577016 -0.28645566 0.2823341
0.29156986 -0.3247523 -0.08305999 0.11672737 -0.1554996 -0.24670804 -0.30757436 -0.36390117
-0.18420447 -0.15678565 0.012354647 -0.29122135 0.10958487 -0.41878515 0.059622347 0.02269312
-0.047435798 -0.21675661 -0.00093936844 0.19116431 0.0788564 -0.116968766 -0.21969159 -0.13914414
0.08290749 -0.6050265 0.016054343 -0.73245835 -0.18079883 -0.63320726 -0.20952713 -0.06893236
-0.019811943 -0.1917577 0.050203282 0.1911823 -0.41491133 0.02529499 0.13948634 0.02111658
0.047718853 -0.18544288 -0.3145237 0.124940306 -0.10711029 0.12759918 -0.7754298 -0.13824534
-0.06362036 -0.15213738 0.04648171 -0.25376096 0.09726898 -0.3620165 -0.39249897 -0.23982987
0.15260324 -0.06865317 -0.013028998 0.12283975 -0.030223632 0.33104193 -0.12158704 -0.19308244
-0.32005352 0.12728404 0.13344489 -0.5881564 -0.2137794 -0.22889578 -0.4174632 -0.27295375
-3.9608094e-05 0.38253465 -0.41852853 0.033013962 -0.16815889 0.10638112 -0.13709846 -0.0042664576
-0.104444385 -0.5236381 -0.49240768 0.06173142 -0.3335529 -0.61648643 -0.50589424 -0.6468645
00000000: 7942 d63d 3b64 c53e ead8 e7bd 9439 19bd
00000010: 3167 d0bd 6810 f63d 3e98 9e3d c33e 5dbd
00000020: c15d 0e3e 44fd 963e f491 ebbb 08b2 eabe
00000030: 35b3 6dbe 6a4f 0d3e 835b 36be e2e2 dc3d
00000040: 5fde 113e f043 283e 0958 4f3d 84cd 12bd
00000050: 7e46 053e acfd 563e 4927 31be 6e51 9dbe
00000060: b611 00bf bf49 6cbf 595c 01be b423 a43d
00000070: 2645 fa3c ede5 94bd 64be 46be d64f 0bbe
00000080: 3e40 1bbb 73bd c2be 7585 52bd b129 a9be
00000090: 17cd ee3d 8d0e d13d 0107 59be ca3e 12be
000000a0: 599e d0be 714d d3bd c94d 1b3f 9931 99bd
000000b0: dc90 6a3c 6ddb 91be 6a94 f1bc 0eb0 f5bc
000000c0: 3668 1cbd 2e2f 093e 0b79 06bf 3438 ed3e
000000d0: bab3 c33d c4b3 d03c acfb d03d d43c bd3d
000000e0: 73e2 28be fbf1 2a3c 0978 a0bc 58c1 a73e
000000f0: 2c4b c43d f7f7 14bd 2bdc 0fbf 371e 0ebf
00000100: d821 24be 34ef 4a3e 1a07 febe 0de2 c3bd
00000110: 9192 f73d fec5 9f3c f49e debd 8cb7 cc3d
00000120: 5e78 ecbe 39ce c13e 4109 63bd b4f4 bf3e
00000130: 8e7c 52bf 354c bcbc dd7d 783e db0e e4bd
00000140: f777 bcbd 4835 0d3e b763 9fbe d00b 913d
00000150: 8031 86bb 1347 6abe 8807 a63d dcdd b6be
00000160: 7119 0fbe 938f 023e 8d59 0fbd ed1a c0bd
00000170: 8c47 8bbd 2d43 613e f26d 053d 4ed3 b23c
00000180: 717c 7c3d 69a7 353d 3208 dfbd 19c9 ed3d
00000190: 8bc2 b8bd b9bc 293d eec8 6b3d 2931 abbe
000001a0: 4809 3ebd 4294 55bc 81b9 77bc 2ea1 08be
000001b0: 80b4 1fbe 0e5c febd b34a 1a3e 431e 463d
000001c0: f838 5abe fb64 93bd 96fe 21be 582a b43d
000001d0: 5cc7 f3bd bd2d 11bf ebc6 3fbd bb32 d83d
000001e0: a6a5 343e 4fce 823d 28e1 1e3e 9c3d b13e
000001f0: 14a0 82be 59c5 10be f120 9cbe f973 dabe
00000200: 4157 f13d 9fd7 6cbe 4788 1fbf 5537 23be
00000210: f41f 543e 1bf5 55be 4844 b13c f8b8 8bbb
00000220: c021 0b3e 80b4 5bbe 3d0d afbd 1eaa 883d
00000230: 2d3e 783e 975d bf3b 524b ca3d b376 143d
00000240: 0c0d 4ebe b4af 9f3d ae02 7a3d 0ab6 a7bd
00000250: bf0d 19bd a128 913e 49da 43be 2b92 be3e
00000260: 24c3 ebbd 1e56 d9be 6313 353e d45b b2be
00000270: baaa 7639 e721 23be 07d2 0b3e a905 b43e
00000280: a448 8f3d ca32 b4be 3701 b8be 97b3 54be
00000290: 196d 9a3d c644 153e 51aa 92be 188e 903e
000002a0: a548 953e ef45 a6be 5b1b aabd c20e ef3d
000002b0: 4a3b 1fbe 08a1 7cbe 637a 9dbe 4151 babe
000002c0: 19a0 3cbe 6b8c 20be 256b 4a3c f71a 95be
000002d0: 086e e03d 026b d6be 9036 743d ece6 b93c
000002e0: 0a4c 42bd 72f5 5dbe f33f 76ba 94c0 433e
000002f0: 777f a13d 528d efbd d5f6 60be cd7b 0ebe
00000300: 67cb a93d 04e3 1abf 6684 833c 6482 3bbf
00000310: 5423 39be df19 22bf 488e 56be 692c 8dbd
00000320: a84c a2bc 215c 44be f5a1 4d3d 4bc5 433e
00000330: 426f d4be 7037 cf3c 82d5 0e3e aefc ac3c
00000340: d874 433d bde4 3dbe 4009 a1be b4e0 ff3d
00000350: a45c dbbd 5ca9 023e 9182 46bf 3090 0dbe
00000360: 644b 82bd e7c9 1bbe 9b63 3e3d f5ec 81be
00000370: f634 c73d 3a5a b9be a0f5 c8be f695 75be
00000380: 0644 1c3e 089a 8cbd 9477 55bc 6893 fb3d
00000390: 8d97 f7bc 547e a93e a002 f9bd 67b7 45be
000003a0: 0ede a3be bf56 023e c7a5 083e 6b91 16bf
000003b0: fde8 5abe a863 6abe bdbd d5be 98c0 8bbe
000003c0: de20 26b8 95db c33e 5f49 d6be a639 073d
000003d0: d831 2cbe 58de d93d 8a63 0cbe a4cd 8bbb
000003e0: f0e6 d5bd 260d 06bf dc1c fcbe 16da 7c3d
000003f0: 72c7 aabe 0ed2 1dbf 4982 01bf e998 25bf

fc2.bias f4 [64]
-0.045835685 0.033272296 0.15636067 -0.0086576715 0.04631459 -0.08801897 -0.10877079 -0.07866314
0.32309893 0.6403 -0.15719354 0.3979666 0.44032595 -0.26192796 -0.13501325 -0.012810857
0.09393658 0.30695704 -0.10259633 0.5560619 0.030906988 0.5399972 -0.12657624 0.042706892
-0.23588496 -0.11204133 -0.12179594 -0.17205153 0.07698096 0.053155042 0.06863947 0.38071352
-0.06320168 0.094044566 0.13267446 -0.09289534 0.078229286 -0.13706146 0.37393585 0.12975591
0.0535399 0.7061558 0.48775053 0.087066695 -0.14151618 -0.25825262 0.4905078 -0.14743829
-0.095624715 0.058831032 -0.2448914 0.64096576 0.052506495 -0.112006225 0.19042408 -0.07366528
-0.24599116 -0.115405805 0.12674466 -0.12939802 0.053545475 0.085967794 0.011068435 0.13245477
00000000: 33be 3bbd 8848 083d 031d 203e e8d8 0dbc
00000010: 5eb4 3d3d 4a43 b4bd 38c3 debd 241a a1bd
00000020: 396d a53e b3ea 233f 58f7 20be 47c2 cb3e
00000030: 6772 e13e 6c1b 86be ea40 0abe a1e4 51bc
00000040: d261 c03d 7929 9d3e 061e d2bd 135a 0e3f
00000050: a730 fd3c 423d 0a3f 349d 01be 6ced 2e3d
00000060: d48b 71be ed75 e5bd 2670 f9bd 472e 30be
00000070: 32a8 9d3d 1ab9 593d da92 8c3d e2ec c23e
00000080: e26f 81bd 709a c03d d0db 073e e93f bebd
00000090: ad36 a03d d759 0cbe 8574 bf3e bcde 043e
000000a0: a74c 5b3d a0c6 343f 70ba f93e 0650 b23d
000000b0: 9ee9 10be b039 84be d723 fb3e 10fa 16be
000000c0: e4d6 c3bd cff8 703d d0c4 7abe 5516 243f
000000d0: 0d11 573d 8563 e5bd 88fe 423e d3dd 96bd
000000e0: 1be5 7bbe e159 ecbd 5ac9 013e ea80 04be
000000f0: 8052 5b3d e20f b03d 6258 353c 39a2 073e

fc3.weight f4 [4, 64]
-0.13894159 0.13672492 0.104493834 -0.14901356 0.13934393 0.48652515 0.15540674 -0.40845355
0.20479617 0.19807482 -0.22457957 0.22859195 0.15838923 -0.21149005 -0.44369656 0.13891771
0.063849196 0.23247622 -0.023158357 0.23919195 0.3574709 0.13174486 0.017392972 0.13982074
-0.0633733 -0.05961585 -0.25643933 -0.14414062 0.27102858 0.34177253 -0.16000552 0.16073444
-0.08667582 0.098264486 0.09325339 -0.024051854 0.1540881 -0.096612334 0.36635286 0.1618634
0.037041172 0.19159633 0.10642504 0.2806614 -0.17307472 -0.049958266 0.22473648 0.5636092
-0.1200011 0.13992245 -0.15821198 0.21658787 0.08977814 -0.5453417 0.11907384 0.26933447
-0.2783718 -0.082880415 0.34710827 0.22569294 0.12688988 0.41276947 -0.08771509 0.16853087
0.056644887 0.19526805 0.36340296 -0.071350254 0.36669466 0.4361564 -0.07043995 0.35669222
0.16504914 0.17010203 -0.115591966 0.2811052 0.15104802 -0.04712107 -0.43249744 0.1575206
0.10958095 0.27201372 -0.06706228 0.18379499 0.35457614 0.28625846 0.10834778 0.07492877
-0.05837883 -0.039324604 -0.02727021 -0.1336724 0.18741551 0.42928696 -0.14532183 0.1346408
-0.0046299244 0.08239978 0.17518143 -0.051580187 0.24419901 -0.09048641 0.29882166 0.16081421
0.11814481 0.22356425 0.14657086 0.29851654 -0.18854445 -0.1595853 0.1538539 -0.099836856
-0.2631973 0.077667184 0.07415428 0.17058328 0.10686416 0.16041309 0.10316496 0.2257998
-0.17068881 -0.31919503 0.50061804 -0.2647231 0.16593057 0.3309147 -0.40092465 0.20821844
0.11775496 0.08340181 0.2484894 -0.28996098 0.8499355 0.023132913 -0.027999785 -0.021238059
0.13775063 0.1986543 -0.09820944 0.1656662 0.18387794 -0.30989438 -0.2263472 0.2192306
0.10186467 0.29883212 -0.044919703 0.12701024 -0.088895865 0.3167284 -0.8207296 0.2419869
-0.0005195165 -0.06428416 0.10089232 0.08820644 0.17991632 0.618881 -0.2434375 0.07926272
-0.840864 0.120475054 0.20753947 0.12455071 0.0250871 -0.07824777 0.13610049 0.1003546
0.111417614 0.25274807 0.23091303 0.20489188 -0.40512356 -0.22026156 0.18811534 0.5121786
0.05507254 0.24445131 0.08756064 0.2518609 0.010659721 -0.33864504 0.21073608 0.5457147
-0.20527469 0.41512224 -0.0766689 -0.4041774 0.26746732 0.3520024 -0.14446351 0.13462782
0.23069932 0.31451955 0.3349278 -0.21316196 0.1699231 0.704356 -0.09603272 -0.24028988
0.20269227 0.2532694 0.09931629 0.046905454 0.1698488 -0.11551951 0.14507133 -0.3096678
0.18230024 0.28011674 0.07917042 0.24092157 0.6013005 0.29235375 0.10816979 0.08873805
-0.28066882 -0.08089969 -0.077548586 -0.29647905 0.25737432 0.19517593 -0.21873759 0.13840024
-0.54944843 0.35231286 0.043972623 0.014605715 -0.059804186 0.05055661 0.19988677 0.17240158
-0.15518938 0.24730904 0.20641363 -0.031460807 0.10717611 -0.34879062 0.16158073 0.72943896
0.066470616 0.033245783 0.096885405 0.18543671 0.20999813 -0.31819323 0.3000201 0.07811781
-0.076968506 0.4236098 0.10224031 -0.14739017 -0.07807634 0.07914805 -0.7329204 0.24802008
00000000: b446 0ebe 9e01 0c3e dd00 d63d 0397 18be
00000010: 2db0 0e3e d319 f93e f222 1f3e d320 d1be
00000020: 16b6 513e 20d4 4a3e 30f8 65be 0214 6a3e
00000030: c930 223e d990 58be 322c e3be 7240 0e3e
00000040: 5ec3 823d 3f0e 6e3e 98b6 bdbc bcee 743e
00000050: 6d06 b73e 20e8 063e b57b 8e3c 2b2d 0f3e
00000060: dcc9 81bd c02f 74bd 044c 83be 9999 13be
00000070: 42c4 8a3e cffc ae3e 7dd8 23be 9297 243e
00000080: 1883 b1bd e43e c93d a2fb be3d 6508 c5bc
00000090: 45c9 1d3e b0dc c5bd 9a92 bb3e 85bf 253e
000000a0: 7cb8 173d d431 443e 5ff5 d93d dab2 8f3e
000000b0: 803a 31be 0aa1 4cbd 5221 663e b148 103f
000000c0: 23c3 f5bd d547 0f3e 5202 22be 36c9 5d3e
000000d0: 9add b73d 839b 0bbf fcdc f33d 35e6 893e
000000e0: c086 8ebe 35bd a9bd 2db8 b13e 0d1c 673e
000000f0: 6cef 013e 8556 d33e f8a3 b3bd 5b93 2c3e
00000100: 7804 683d 59f4 473e f40f ba3e 1520 92bd
00000110: 67bf bb3e e44f df3e d242 90bd 5da0 b63e
00000120: a402 293e 3a2f 2e3e 7bbb ecbd 05ed 8f3e
00000130: 55ac 1a3e 0602 41bd 4e70 ddbe 154d 213e
00000140: fa6b e03d 6245 8b3e f357 89bd c134 3c3e
00000150: 018b b53e 7890 923e 71e5 dd3d 4174 993d
00000160: a41e 6fbd d612 21bd c765 dfbc 6be1 08be
00000170: dae9 3f3e 80cb db3e 3fcf 14be 47df 093e
00000180: 9fb6 97bb 37c1 a83d c362 333e bf45 53bd
00000190: 4e0f 7a3e f050 b9bd 27ff 983e 7bac 243e
000001a0: e8f5 f13d 07ee 643e ac16 163e 29d7 983e
000001b0: cc11 41be 546a 23be e08b 1d3e 4477 ccbd
000001c0: ccc1 86be f90f 9f3d 33de 973d 62ad 2e3e
000001d0: 99db da3d 5443 243e 2748 d33d 1038 673e
000001e0: 0cc9 2ebe 886d a3be 8128 003f c989 87be
000001f0: b4e9 293e a76d a93e ff45 cdbe 3737 553e
00000200: 8329 f13d 91ce aa3d 0174 7e3e c475 94be
00000210: 5f95 593f 3c81 bd3c ce5f e5bc 70fb adbc
00000220: 800e 0d3e 086c 4b3e 0822 c9bd 66a4 293e
00000230: 804a 3c3e 7aaa 9ebe 8fc7 67be fd7d 603e
00000240: 6d9e d03d 8600 993e b9fd 37bd f90e 023e
00000250: 090f b6bd 3a2a a23e 561b 52bf 6acb 773e
00000260: 2a30 08ba 6aa7 83bd a2a0 ce3d 94a5 b43d
00000270: fc3b 383e fc6e 1e3f ae47 79be 7e54 a23d
00000280: dd42 57bf a0bb f63d 3a85 543e 7114 ff3d
00000290: 7683 cd3c 5e40 a0bd ed5d 0b3e b686 cd3d
000002a0: eb2e e43d 3268 813e 7774 6c3e 2dcf 513e
000002b0: 5b6c cfbe 3f8c 61be 4fa1 403e 231e 033f
000002c0: be93 613d 7251 7a3e fe52 b33d e9f3 803e
000002d0: 1ca6 2e3c e262 adbe 33cb 573e f5b3 0b3f
000002e0: 8733 52be e78a d43e 9604 9dbd 57f0 cebe
000002f0: 7af1 883e a939 b43e 3eee 13be e0db 093e
00000300: 713c 6c3e b508 a13e a87b ab3e 2147 5abe
00000310: 5200 2e3e ad50 343f cdac c4bd 8d0e 76be
00000320: 908e 4f3e 87ac 813e 5766 cb3d ef1f 403d
00000330: d8ec 2d3e 7e95 ecbd 948d 143e c78c 9ebe
00000340: eaac 3a3e 766b 8f3e 1a24 a23d 25b4 763e
00000350: d4ee 193f 64af 953e 1f88 dd3d 4bbc b53d
00000360: d3b3 8fbe bdae a5bd cbd1 9ebd 1acc 97be
00000370: 91c6 833e 33dc 473e bffc 5fbe cbb8 0d3e
00000380: a7a8 0cbf 5a62 b43e a31c 343d cf4c 6f3c
00000390: 3cf5 74bd 7314 4f3d 1eaf 4c3e 0a8a 303e
000003a0: f7e9 1ebe 953e 7d3e 185e 533e 0cdd 00bd
000003b0: 267f db3d af94 b2be 6b75 253e 83bc 3a3f
000003c0: bf21 883d bb2c 083d db6b c63d 1fe3 3d3e
000003d0: c009 573e 39ea a2be 3c9c 993e 3bfc 9f3d
000003e0: aaa1 9dbd 62e3 d83e 5e63 d13d 73ed 16be
000003f0: 7de6 9fbd 5f18 a23d aca0 3bbf faf8 7d3e

fc3.bias f4 [4]
0.5319822 0.41510788 0.3053632 0.28014162
00000000: fc2f 083f 0589 d43e 9158 9c3e b96e 8f3e
