Continuous Control/checkpoint_actor.pth (torch_old, 169452 bytes, 6 tensors)

fc1.weight f4 [256, 33]
-0.06634084 -0.10551593 -0.007824183 -0.06628781 -0.06518994 -0.032961063 0.053206433 -0.028399939
0.016514732 0.062056195 0.02215034 0.010331879 -0.028281486 0.07053265 0.10132294 -0.09325717
0.038486093 0.010559503 -0.023343382 0.019910323 -0.0447978 -0.19405866 0.07785296 0.01850715
0.041646797 -0.08214304 0.07237659 -0.051654965 -0.1048622 0.031534612 0.0848015 0.028442599
-0.43304828 -0.036058187 -0.113370076 -0.30926347 -0.084379405 -0.109298445 -0.010703556 -0.11740439
0.21597478 0.07078306 0.016631896 0.07592291 -0.03989375 -0.09985793 0.028095491 0.00372157
0.085264675 0.0055730822 -0.0012700146 -0.018090636 -0.02871066 -0.045149088 -0.069780774 0.00024744944
-0.01047832 0.0073289466 0.07776955 -0.11981487 -0.0043124952 0.0328786 -0.058925427 0.015957724
0.051832296 -0.58216715 0.1063607 0.014946747 -0.081091635 -0.116412215 -0.028298689 0.14748907
-0.12091585 0.043704085 -0.010233112 -0.15061611 0.07205862 0.01579017 -0.00077548303 0.089412756
0.18842202 0.1079615 0.011828516 -0.01656314 0.04800009 -0.012884175 0.1926535 -0.013804053
0.11580328 -0.0017068761 0.074097104 0.166277 0.045233548 5.9099484e-06 0.07978954 0.03277698
-0.06228944 -0.035798535 -0.388558 -0.08901661 -0.1215723 -0.06253863 -0.038032386 0.06022592
0.016790897 -0.08887515 0.07148645 -0.08586197 0.006369671 -0.15115158 -0.02929228 0.07331241
-0.06418392 0.024285844 -0.11698528 0.047318183 -0.008554946 0.015838673 0.010189475 -0.02583445
-0.017481083 0.012199569 -0.07084013 -0.04366345 -0.05204785 0.02648632 -0.019799776 0.19253218
-0.05549769 0.04938878 -0.044141024 0.66878635 -0.10765827 0.18240528 0.08357018 -0.011553437
-0.09357342 0.008538569 0.03213297 0.08459845 0.07721117 0.12740484 0.092563175 -0.037256226
-0.00070790784 -0.09527361 0.016001888 -0.06158768 0.10037797 -0.029842133 0.013004193 0.03898314
0.0800794 0.039555408 -0.062753394 -0.05074149 -0.017812563 0.111449614 0.120719105 0.13127515
0.11352312 0.01118844 -0.119632244 0.05973068 -1.049962 0.1015761 0.020176208 0.046542656
0.07659924 0.13563943 -0.016533785 0.0018281445 -0.090654515 0.12068601 0.03940829 -0.018768027
3.047124e-05 0.077619486 -0.040433373 0.024469834 0.13272658 -0.07938903 -0.027807958 0.010083613
0.007559602 -0.0032953122 0.038301583 -0.05031461 0.051759057 0.012684068 0.13567254 0.2225259
-0.015331567 0.10245152 0.023382619 0.0061578825 0.015905716 0.97240794 -0.1465417 0.10065555
0.0027640187 -0.09213199 -0.0578701 0.077712424 -0.01874737 -0.012431524 0.026908513 -0.09756385
-0.00065477105 0.02654792 0.01363722 0.14232853 -0.07313443 0.092089295 0.027960718 0.011213372
-0.008906652 -0.02444534 -0.0024215223 0.027209224 0.040643312 0.044372287 -0.08581754 0.14360976
-0.13299635 0.21600047 0.056372512 0.0397287 -0.27271444 0.012115531 -0.7289505 0.02850367
-0.034316104 0.14823738 -0.004624474 0.072758704 -0.019565348 -0.06778425 -0.10846073 0.07206047
0.073297694 -0.094521135 -0.018558078 0.00784348 0.051347964 0.047867063 -0.041385964 0.11159195
-0.027070725 -0.012430186 -0.0676011 0.0031292525 -0.11886578 -0.009881543 0.09882711 -0.03927792
00000000: b5dd 87bd bc18 d8bd 0131 00bc e7c1 87bd
00000010: 4e82 85bd 2e02 07bd fdee 593d fda6 e8bc
00000020: e749 873c a32e 7e3d a174 b53c 0b47 293c
00000030: 93ae e7bc 6c73 903d 6782 cf3d 9dfd bebd
00000040: 98a3 1d3d c401 2d3c 9f3a bfbc f91a a33c
00000050: e67d 37bd 50b7 46be 5f71 9f3d 4e9c 973c
00000060: d595 2a3d 9c3a a8bd 2d3a 943d 2894 53bd
00000070: fec1 d6bd 702a 013d 69ac ad3d 7400 e93c
00000080: 81b8 ddbe c0b1 13bd 922e e8bd c857 9ebe
00000090: 1ccf acbd ddd7 dfbd f85d 2fbc b671 f0bd
000000a0: 7e28 5d3e b5f6 903d 9d3f 883c 787d 9b3d
000000b0: a167 23bd 5082 ccbd 8428 e63c 95e5 733b
000000c0: 3f9f ae3d 679e b63b 9e76 a6ba d032 94bc
000000d0: 9e32 ebbc 40ee 38bd 39e9 8ebd 1abc 8139
000000e0: 42ad 2bbc a927 f03b a445 9f3d 8061 f5bd
000000f0: d54f 8dbb b6ab 063d ca5b 71bd c6b9 823c
00000100: 1a4e 543d e808 15bf a4d3 d93d 33e3 743c
00000110: 5f13 a6bd 8769 eebd a7d2 e7bc 6007 173e
00000120: bba2 f7bd 0e03 333d c8a8 27bc 1c3b 1abe
00000130: 7893 933d 635a 813c c949 4bba 091e b73d
00000140: b4f1 403e eb1a dd3d 64cc 413c 6caf 87bc
00000150: be9b 443d 2618 53bc f646 453e 652a 62bc
00000160: 452a ed3d 42b9 dfba 39c0 973d 8544 2a3e
00000170: d046 393d 124e c636 b368 a33d 2841 063d
00000180: 3623 7fbd 7ca1 12bd 13f1 c6be 574e b6bd
00000190: e6fa f8bd 4114 80bd d9c7 1bbd 74af 763d
000001a0: 108d 893c 2d04 b6bd 7d67 923d 67d8 afbd
000001b0: acb8 d03b 7bc7 1abe 5df6 efbc d124 963d
000001c0: dc72 83bd 1bf3 c63c fa95 efbd b6d0 413d
000001d0: 0b2a 0cbc 1bc0 813c c1f1 263c c5a2 d3bc
000001e0: 7d34 8fbc b3e0 473c a114 91bd 72d8 32bd
000001f0: 2030 55bd d7f9 d83c 2433 a2bc 2827 453e
00000200: 8c51 63bd e44b 4a3d 38cd 34bd 9535 2b3f
00000210: f07b dcbd 73c8 3a3e d826 ab3d a14a 3dbc
00000220: 6ca3 bfbd 5be5 0b3c dc9d 033d f441 ad3d
00000230: e420 9e3d 6a76 023e c391 bd3d fc99 18bd
00000240: e492 39ba cf1e c3bd 6416 833c 5d43 7cbd
00000250: f792 cd3d 7d77 f4bc 8a0f 553c c9ac 1f3d
00000260: ab00 a43d da04 223d da84 80bd 4fd6 4fbd
00000270: a7eb 91bc b23f e43d 943b f73d fe6c 063e
00000280: cf7e e83d b84f 373c c001 f5bd 28a8 743d
00000290: 2865 86bf 2107 d03d 9348 a53c 83a3 3e3d
000002a0: 10e0 9c3d 10e5 0a3e dc71 87bc 5a9e ef3a
000002b0: 13a9 b9bd 3a2a f73d 966a 213d 68bf 99bc
000002c0: 7d9c ff37 f7f6 9e3d 779d 25bd f674 c83c
000002d0: 7ae9 073e b796 a2bd 84cd e3bc bd35 253c
000002e0: 8ab6 f73b 2af6 57bb 1fe2 1c3d b116 4ebd
000002f0: 4e01 543d d6d0 4f3c beed 0a3e d4dd 633e
00000300: 4131 7bbc 1ad2 d13d e88c bf3c 10c8 c93b
00000310: b44c 823c baef 783f 070f 16be 7f24 ce3d
00000320: 8a24 353b b2af bcbd 3309 6dbd b127 9f3d
00000330: 1694 99bc 97ad 4bbc 3e6f dc3c 8ecf c7bd
00000340: f1a4 2bba 067b d93c a56e 5f3c 92be 113e
00000350: 81c7 95bd 5099 bc3d e00d e53c 4bb8 373c
00000360: 35ed 11bc 9841 c8bc 67b2 1ebb e1e5 de3c
00000370: 9a79 263d b7bf 353d 1bc1 afbd 700e 133e
00000380: 3230 08be 3a2f 5d3e dde6 663d 90ba 223d
00000390: 3aa1 8bbe 3880 463c 809c 3abf 8780 e93c
000003a0: 0b8f 0cbd 8acb 173e e688 97bb 8402 953d
000003b0: 8247 a0bc 78d2 8abd a920 debd 7194 933d
000003c0: 1a1d 963d 4c94 c1bd 1c07 98bc f181 003c
000003d0: 3e52 523d 4110 443d 5484 29bd 528a e43d
000003e0: 6dc3 ddbc fba7 4bbc 7272 8abd 2514 4d3b
000003f0: e76f f3bd 32e6 21bc de65 ca3d e2e1 20bd

fc1.bias f4 [256]
0.17092697 0.19056623 -0.05361209 0.15811275 -0.17404737 -0.15520068 -0.37902728 -0.068667844
0.087151684 0.23232168 -0.12270394 -0.040588018 0.16472444 -0.15437931 0.19238296 0.06517618
-0.18077411 -0.26329657 0.38538668 -0.1433844 0.0028951783 0.11928221 -0.09746772 0.08448578
-0.019871242 -0.098369986 0.09040599 -0.13167474 0.11727954 0.01588397 -0.027032485 -0.15357456
-0.080761686 -0.1894032 0.18697143 -0.04015387 0.23180532 0.13603549 -0.102936655 0.21594742
-0.17333716 0.056321427 0.08725819 -0.22728188 0.081673145 -0.16802014 0.14597188 0.059841566
0.21815288 -0.09252031 -0.2071599 0.2493525 -0.19532335 0.09471478 -0.12901218 0.235723
-0.03259548 -0.02149746 -0.026049646 -0.09845193 -0.23707661 0.20271857 -0.105467156 0.06584348
-0.026094602 -0.074385375 -0.06677475 0.09047116 0.12744886 0.17299959 0.2847161 0.07091239
-0.08896598 0.01275023 -0.016953412 0.065371685 0.116724856 -0.16134872 0.08534158 -0.07636674
0.05556959 0.24779822 -0.07638215 0.14096677 0.21833313 -0.14642678 0.20080824 0.06785898
0.1189678 0.24683706 0.1091205 0.020538779 0.033889007 -0.12986107 -0.1946036 0.06260268
0.25602555 -0.17928806 0.103436165 0.027924467 0.06150836 0.07197153 -0.022276258 -0.10990272
-0.2903502 0.0027783103 -0.20077531 0.20899607 -0.042594 -0.070750214 0.23608865 0.07217776
-0.04977229 0.079576015 0.15734032 -0.16410762 0.11571559 -0.15089162 0.08132917 -0.05444847
0.12180763 0.19910838 0.19191642 0.026179917 0.0034411526 0.032474075 0.007884949 0.094068244
-0.054362923 0.12766944 0.001138662 -0.18066294 -0.07194293 0.10784787 0.006935408 -0.14396514
-0.29103193 0.07322679 -0.14636227 -0.023579992 0.13149588 -0.15810657 -0.056538843 0.04658804
0.14913939 -0.21289329 -0.01730274 -0.05352153 0.16246893 0.11684086 -0.019814769 0.1661701
0.0077398983 0.2169288 0.24643232 0.02631914 0.045211982 -0.028425332 -0.0856143 -0.24513108
0.011045761 -0.29503337 0.07955174 -0.17485964 -0.06901199 -0.06405303 0.04677822 -0.09135787
0.07281424 0.22581716 0.06876082 0.14959405 0.15583952 0.23390646 0.073385336 -0.053317465
0.24095137 -0.020920722 0.2069496 -0.1227904 0.08548932 0.22092257 -0.13651906 -0.042189907
-0.0034674325 0.060936246 -0.12641671 0.01844577 0.06385469 0.25622073 -0.1179124 0.105200015
0.0037889 0.09508356 -0.08666364 0.08293916 -0.16680996 -0.26640272 -0.0477656 -0.096183576
0.07637817 0.09055384 0.0854229 -0.15851256 -0.02854689 0.12639326 0.09874515 0.018273337
-0.009155879 0.0075641293 0.184967 0.34065887 0.15160193 -0.12590715 0.008953733 0.09654221
-0.013126126 0.04377556 0.043069806 0.011251913 0.0846399 -0.16236712 -0.34058228 -0.11701891
0.20062877 -0.06484693 -0.08840884 0.0073238933 -0.098750174 0.21211703 -0.0962369 -0.10643202
-0.19841303 -0.31981787 0.15966764 -0.22641903 0.1803764 0.085484356 0.11232126 -0.16316508
0.083674386 -0.13316083 0.21173576 0.05292383 0.118848056 0.15759945 -0.03169897 0.21705757
-0.03671942 -0.19493268 0.12748083 -0.12611361 -0.0076248553 0.026510607 0.04120846 0.05607806
00000000: 7b07 2f3e cb23 433e 5a98 5bbd 4fe8 213e
00000010: 7939 32be edec 1ebe dd0f c2be baa1 8cbd
00000020: 957c b23d bce5 6d3e 344c fbbd 9f3f 26bd
00000030: 86ad 283e 9c15 1ebe 0a00 453e 177b 853d
00000040: d91c 39be cfce 86be 6751 c53e 5cd3 12be
00000050: 08bd 3d3b 3b4a f43d 289d c7bd e106 ad3d
00000060: 04c9 a2bc 3476 c9bd c726 b93d bed5 06be
00000070: 4130 f03d 191f 823c 3b73 ddbc a642 1dbe
00000080: 6266 a5bd eaf2 41be 7075 3f3e 6278 24bd
00000090: 605e 6d3e e34c 0b3e 74d0 d2bd 5221 5d3e
000000a0: 4c7f 31be 4cb1 663d 6cb4 b23d 95bc 68be
000000b0: 4044 a73d 790d 2cbe a779 153e 6e1c 753d
000000c0: 7863 5f3e 4a7b bdbd ba21 54be 4356 7f3e
000000d0: d802 48be d3f9 c13d c51b 04be 5f61 713e
000000e0: d782 05bd 711b b0bc 1166 d5bc 2aa1 c9bd
000000f0: 36c4 72be 7595 4f3e 2aff d7bd f2d8 863d
00000100: 59c4 d5bc 5c57 98bd 33c1 88bd f248 b93d
00000110: f481 023e ce26 313e 4fc6 913e 843a 913d
00000120: cc33 b6bd 57e6 503c e2e1 8abc 97e1 853d
00000130: 710d ef3d 9938 25be 91c7 ae3d 2a66 9cbd
00000140: f09c 633d d1be 7d3e 3f6e 9cbd 9859 103e
00000150: b892 5f3e e7f0 15be ada0 4d3e a6f9 8a3d
00000160: 64a5 f33d dbc2 7c3e 927a df3d f140 a83c
00000170: 33cf 0a3d 4dfa 04be 2b46 47be d535 803d
00000180: c815 833e 4a97 37be 57d6 d33d dac1 e43c
00000190: 31f0 7b3d cf65 933d b37c b6bc ad14 e1bd
000001a0: c8a8 94be 5014 363b 0b98 4dbe 1103 563e
000001b0: 0c77 2ebd 7de5 90bd 39c1 713e efd1 933d
000001c0: 07de 4bbd c0f8 a23d d21d 213e d40b 28be
000001d0: 4cfc ec3d 5583 1abe e88f a63d 5c05 5fbd
000001e0: 4776 f93d 11e3 4b3e bd85 443e 4477 d63c
000001f0: f684 613b 8903 053d e02f 013c daa6 c03d
00000200: a8ab 5ebd c7bb 023e 283f 953a b5ff 38be
00000210: d156 93bd 58df dc3d 6b42 e33b 996b 13be
00000220: 2302 95be edf7 953d fedf 15be d42a c1bc
00000230: dba6 063e b0e6 21be 4695 67bd 1ad3 3e3d
00000240: ffb7 183e b300 5abe 7abe 8dbc 6439 5bbd
00000250: 415e 263e 434a ef3d 9552 a2bc 7f28 2a3e
00000260: f99e fd3b 9522 5e3e c158 7c3e 3d9b d73c
00000270: 3330 393d 3edc e8bc 8d56 afbd a403 7bbe
00000280: 48f9 343c 9d0e 97be 06ec a23d 680e 33be
00000290: 2956 8dbd 3c2e 83bd 859a 3f3d d619 bbbd
000002a0: a21f 953d 9d3c 673e 79d2 8c3d 2f2f 193e
000002b0: 6594 1f3e 2d85 6f3e 0d4b 963d 6a63 5abd
000002c0: f5bb 763e ef61 abbc 99ea 533e 8979 fbbd
000002d0: 0615 af3d 8739 623e a7cb 0bbe 53cf 2cbd
000002e0: dd3d 63bb 4998 793d 6273 01be 951b 973c
000002f0: 3fc6 823d 5d2f 833e 0e7c f1bd 1b73 d73d
00000300: 324f 783b 2bbb c23d b57c b1bd 02dc a93d
00000310: 3bd0 2abe f065 88be dda5 43bd e5fb c4bd
00000320: 286c 9c3d 4b74 b93d 34f2 ae3d 1e51 22be
00000330: 2bdb e9bc 3c6d 013e e63a ca3d f7b1 953c
00000340: 8a02 16bc 84dc f73b fd67 3d3e d76a ae3e
00000350: 893d 1b3e ceed 00be aeb2 123c ecb7 c53d
00000360: f60e 57bc 004e 333d f769 303d f259 383c
00000370: af57 ad3d 9143 26be cd60 aebe 9ca7 efbd
00000380: a171 4d3e 78ce 84bd b20f b5bd 45fd ef3b
00000390: 883d cabd 3535 593e da17 c5bd 08f9 d9bd
000003a0: c92c 4bbe 2bbf a3be ea7f 233e 64da 67be
000003b0: 97b4 383e 6c12 af3d b008 e63d bf14 27be
000003c0: 7a5d ab3d 505b 08be 42d1 583e a8c6 583d
000003d0: 9c66 f33d c061 213e c7d6 01bd 5744 5e3e
000003e0: 1a67 16bd 6f9c 47be 568a 023e ed23 01be
000003f0: ecd9 f9bb c62c d93c 34ca 283d 1cb2 653d

fc2.weight f4 [128, 256]
-0.08323827 0.07220291 -0.051032227 -0.11473165 0.19437617 -0.015783139 0.0997447 0.07451937
0.13532327 0.16869937 -0.2511998 -0.09645956 -0.07678889 6.067834e-05 0.18183997 -0.050784755
0.17519735 -0.094262764 -0.078616306 0.10102758 0.15048783 0.06722566 0.04058079 -0.29698753
0.035779864 -0.00047382608 -0.017756958 -0.004846337 -0.025811022 0.28115776 0.09295637 -0.094723314
0.15990083 -0.04815433 0.1927337 0.054790452 -0.09439354 0.075230055 0.027871406 -0.16201307
-0.086755715 0.11335687 -0.43760452 -0.009810641 0.07244868 0.014081426 -0.12094808 0.05772694
-0.19397207 -0.14541121 -0.024750402 0.19720727 0.05224561 0.15235169 0.076243564 0.0828754
-0.16707887 0.008693643 -0.007284481 0.17521165 0.113015 0.099541225 -0.051399335 0.18817656
0.03469767 0.010101947 -0.49848488 0.062422235 0.08384039 -0.0375526 -0.019863307 -0.42652348
0.2047273 0.045061857 0.06684319 0.13596083 0.2012631 -0.20133907 -0.042770054 0.0955401
0.0127296 -0.20114084 0.037954453 0.059138767 0.16172525 -0.0077853715 0.096345425 -0.008444431
0.20730057 -0.06569518 0.3339816 -0.05845499 -0.26857716 -0.14523052 -0.15082997 -0.2949685
0.1651996 -0.079816215 0.45923147 0.039284106 0.047677536 -0.024179764 -0.06958185 0.043035656
0.24455597 0.17928669 -0.1479581 0.04208996 -0.18740322 -0.025529448 -0.04667308 0.035106756
0.017602058 0.13464764 0.12535809 0.22706266 0.21216834 -0.014265683 0.055670485 -0.4257349
-0.33466843 -0.09796853 -0.119271174 0.04331622 0.03721744 -0.036185693 -0.04458101 0.06376803
-0.07377451 0.13662018 -0.54432434 -0.24385959 0.09595249 0.12926704 -0.0740479 0.050865497
0.014200387 -0.041377548 0.29164675 -0.1496882 -0.035487853 -0.08833685 -0.13706137 0.069322534
0.03133021 0.30420294 -0.082023904 -0.2179269 0.03755767 -0.1503688 -0.063423745 0.050642632
-0.08449121 0.0928507 0.024943054 0.13431959 0.061188735 -0.029503664 0.08923544 0.112079084
-0.14175703 0.21917781 -0.29578853 0.13599929 0.015639605 0.027659094 0.3663668 0.16793719
0.08588361 -0.115102366 0.013918893 -0.3506774 -0.20178257 -0.082873866 0.13026345 0.22176398
0.031058699 0.062884435 -0.050388604 -0.025029214 -0.1270258 -0.07367397 0.06268716 0.104854874
-0.01021794 -0.05548304 0.04211538 -0.030630173 0.112203725 0.098736376 0.012945362 -0.073860906
0.23492065 -0.0010191767 -0.45803744 -0.34679472 -0.028359931 -0.0941104 -0.013027724 -0.06983298
0.19791523 -0.12348671 0.1241779 -0.31694907 -0.061797958 0.024690237 -0.046114627 -0.08165101
0.12386712 0.08736015 -0.41157967 -0.009629324 -0.008065692 -0.35028526 0.28903577 0.061333343
-0.08750195 0.049320046 -0.04491347 -0.24011143 -0.20405628 0.09516592 0.21905774 -0.40423062
0.010079781 0.073164724 -0.031835146 -0.0024905736 0.22507772 -0.1333233 0.15784088 -0.025467476
0.04729101 -0.0022317125 -0.14544116 -0.24014625 -0.11670971 -0.055078715 -0.19469243 0.044761136
-0.17823456 0.06035263 -0.0025424662 -0.0404658 0.24953252 -0.41016465 -0.0035376386 -0.029633982
-0.39556375 0.12126223 -0.10930014 -0.21552084 -0.1440393 0.24331315 -0.12251511 -0.08588664
00000000: d378 aabd 1fdf 933d 2b07 51bd 6df8 eabd
00000010: 8c0a 473e a44b 81bc f346 cc3d 9d9d 983d
00000020: 2f92 0a3e 87bf 2c3e 439d 80be 978c c5bd
00000030: 7e43 9dbd df80 7e38 4234 3a3e ad03 50bd
00000040: ef66 333e d60c c1bd 9601 a1bd 8ce7 ce3d
00000050: 7b19 1a3e 9bad 893d 0b38 263d c00e 98be
00000060: e88d 123d dc6b f8b9 0a77 91bc 05ce 9ebb
00000070: a371 d3bc e9f3 8f3e e95f be3d 4cfe c1bd
00000080: 0bbd 233e 7a3d 45bd fc5b 453e f46b 603d
00000090: 6651 c1bd 3712 9a3d 9352 e43c c1e6 25be
000000a0: fbac b1bd a627 e83d b30d e0be d0bc 20bc
000000b0: f95f 943d c8b5 663c a1b3 f7bd 1573 6c3d
000000c0: 9da0 46be ade6 14be 5bc1 cabc b4f0 493e
000000d0: 7eff 553d 1502 1c3e 9625 9c3d 94ba a93d
000000e0: b916 2bbe c86f 0e3c a8b2 eebb af6a 333e
000000f0: 6974 e73d 45dc cb3d 1c88 52bd 5bb1 403e
00000100: 251f 0e3d a382 253c 6939 ffbe 75ae 7f3d
00000110: 83b4 ab3d c1d0 19bd 60b8 a2bc 4961 dabe
00000120: 09a4 513e c892 383d 15e5 883d 5139 0b3e
00000130: ea17 4e3e d42b 4ebe a72f 2fbd 87aa c33d
00000140: d08f 503c ddf7 4dbe 2176 1b3d 7e3b 723d
00000150: 4e9b 253e 6e1c ffbb c050 c53d 835a 0abc
00000160: 9a46 543e 328b 86bd a3ff aa3e 806e 6fbd
00000170: f282 89be 4fb7 14be 2c73 1abe 1c06 97be
00000180: 152a 293e af76 a3bd 6320 eb3e 5fe8 203d
00000190: 8549 433d a414 c6bc ee80 8ebd 2846 303d
000001a0: e16c 7a3e ee96 373e 5482 17be 8666 2c3d
000001b0: a1e6 3fbe 2223 d1bc 462c 3fbd 1acc 0f3d
000001c0: 3132 903c 12e1 093e df5d 003e 1d83 683e
000001d0: a842 593e 9cba 69bc bc06 643d edf9 d9be
000001e0: a959 abbe baa3 c8bd 7244 f4bd 596c 313d
000001f0: 5071 183d 7337 14bd 949a 36bd d098 823d
00000200: 1717 97bd 29e6 0b3e d758 0bbf 54b6 79be
00000210: bd82 c43d 945e 043e 6da6 97bd 5758 503d
00000220: bda8 683c 817b 29bd b952 953e dd47 19be
00000230: b65b 11bd f3e9 b4bd d159 0cbe f9f8 8d3d
00000240: 1b54 003d 7dc0 9b3e 26fc a7bd 3b28 5fbe
00000250: 12d6 193d 47fa 19be 4fe4 81bd a66e 4f3d
00000260: ba09 adbd 8228 be3d 6055 cc3c 138b 093e
00000270: 0aa1 7a3d abb1 f1bc 12c1 b63d b889 e53d
00000280: c128 11be 2670 603e 9871 97be 6643 0b3e
00000290: a11e 803c 5395 e23c 6e94 bb3e baf7 2b3e
000002a0: bfe3 af3d caba ebbd 120c 643c fd8b b3be
000002b0: 17a0 4ebe c6b9 a9bd c863 053e 1916 633e
000002c0: d06e fe3c 8ec9 803d 4864 4ebd 110a cdbc
000002d0: 0d13 02be 61e2 96bd 2062 803d 27be d63d
000002e0: 2669 27bc 2f42 63bd 2d81 2c3d 21ec fabc
000002f0: 11cb e53d 4c36 ca3d c918 543c 6344 97bd
00000300: 0a8f 703e e595 85ba e283 eabe 148f b1be
00000310: 1653 e8bc f4bc c0bd 3c72 55bc 9804 8fbd
00000320: 4aaa 4a3e 9ae6 fcbd fc50 fe3d 2647 a2be
00000330: db1f 7dbd 2e43 ca3c b1e2 3cbd a538 a7bd
00000340: 0bae fd3d e1e9 b23d 92ba d2be 50c4 1dbc
00000350: f725 04bc 9758 b3be 7ffc 933e ac38 7b3d
00000360: 3934 b3bd d103 4a3d 30f7 37bd c5df 75be
00000370: 21f4 50be 5ae6 c23d ac50 603e 51f7 cebe
00000380: aa25 253c 63d7 953d 9265 02bd e438 23bb
00000390: c67a 663e e785 08be 0aa1 213e 2ba1 d0bc
000003a0: 38b4 413d ec41 12bb 87ee 14be e6e8 75be
000003b0: 8005 efbd 389a 61bd 745d 47be 7457 373d
000003c0: 1f83 36be 5234 773d 819f 26bb 77bf 25bd
000003d0: 7485 7f3e 1a01 d2be bad7 67bb f7c2 f2bc
000003e0: 5587 cabe 5558 f83d c0d8 dfbd 7fb1 5cbe
000003f0: 0a7f 13be 1527 793e 34e9 fabd 56e5 afbd

fc2.bias f4 [128]
-0.034275804 -0.00090617256 -0.008415341 -0.030553693 -0.04185822 -0.019999811 -0.06086314 0.029485282
0.01507513 0.023296861 0.09893373 -0.09027481 0.012164535 0.03315561 0.05387503 0.018179588
0.04231879 0.055362236 -0.015473069 0.032462794 0.06093294 -0.0785929 -0.004730265 0.05981285
-0.039210975 -0.047205165 -0.022025015 -0.023647422 -0.015248139 0.03229746 -0.10072908 0.010503507
-0.014150022 -0.06761786 -0.037935525 -0.040380847 0.021294624 -0.026261041 0.02428596 -0.021957602
0.0073485 0.023025392 0.018751329 -0.008179631 -0.053388845 0.06033448 -0.0021277945 -0.042605963
0.029245771 0.06214572 -0.011654749 -0.005489331 -0.03776746 -0.00011441564 -0.014303113 0.078991905
0.032242224 -0.044631686 0.051667146 -0.015216398 0.05658833 0.03821735 0.0071198544 0.08253248
-0.034699906 0.05534928 -0.029701551 -0.035253413 0.027265832 -0.029863255 -0.023231467 0.004026745
-0.04778198 0.043937165 -0.050608892 0.038047183 -0.17571732 0.033694983 -0.03364616 -0.05238001
0.010197159 -0.0031699687 0.09092173 0.04142685 -0.015884971 -0.061551347 -0.04285688 -0.0057788044
0.020885166 0.037734456 0.06121472 0.050389208 0.08559602 0.019393064 0.021565968 0.060844798
-0.010370976 0.04314453 0.0023890042 0.017176297 -0.031169873 0.12032145 0.06368179 -0.024075603
-0.04221564 0.009845401 -0.06236202 0.049805485 0.12257554 -0.013174587 -0.08238015 -0.10305357
0.09955764 -0.0038280298 0.042437624 -0.04468744 0.047402732 0.010418928 0.12892456 0.021290978
-0.08445469 -0.020874327 -0.01878095 -0.037234444 -0.06410673 0.034827348 0.018076308 -0.025917565
00000000: c964 0cbd 368c 6dba 80e0 09bc bd4b fabc
00000010: 8673 2bbd a5d6 a3bc a14b 79bd 1e8b f13c
00000020: aefd 763c 0fd9 be3c c49d ca3d 00e2 b8bd
00000030: c24d 473c 2dce 073d 10ac 5c3d 5ced 943c
00000040: 7856 2d3d 83c3 623d c182 7dbc b5f7 043d
00000050: d294 793d 50f5 a0bd 5700 9bbb 52fe 743d
00000060: b09b 20bd 345a 41bd ce6d b4bc 3db8 c1bc
00000070: 55d3 79bc 574a 043d 0c4b cebd e716 2c3c
00000080: 7ed5 67bc 3c7b 8abd 4862 1bbd 6366 25bd
00000090: 1072 ae3c 6521 d7bc 59f3 c63c 6ee0 b3bc
000000a0: b0cb f03b bf9f bc3c 639c 993c dc03 06bc
000000b0: 43ae 5abd 4a21 773d 7872 0bbb 9783 2ebd
000000c0: d494 ef3c 838c 7e3d 8ff3 3ebc d9df b3bb
000000d0: 0db2 1abd 6ef2 efb8 9b57 6abc 82c6 a13d
000000e0: 6c10 043d b7cf 36bd eea0 533d 334e 79bc
000000f0: 2ac9 673d cc89 1c3d ab4d e93b ca06 a93d
00000100: 7d21 0ebd edb5 623d ab50 f3bc e265 10bd
00000110: 985c df3c c9a3 f4bc eb4f bebc c9f2 833b
00000120: 0ab7 43bd 75f7 333d 454b 4fbd 5dd7 1b3d
00000130: 3eef 33be c003 0a3d 8ed0 09bd 6c8c 56bd
00000140: fc11 273c 40bf 4fbb 2c35 ba3d 33af 293d
00000150: 3321 82bc 441d 7cbd b28a 2fbd 205c bdbb
00000160: 5e17 ab3c 728f 1a3d 49bc 7a3d ea64 4e3d
00000170: f74c af3d 34de 9e3c 1dab b03c 6538 793d
00000180: 07eb 29bc 52b8 303d d790 1c3b 4eb5 8c3c
00000190: f657 ffbc 186b f63d 996b 823d 333a c5bc
000001a0: 4fea 2cbd 9b4e 213c 516f 7fbd d600 4c3d
000001b0: e208 fb3d 39da 57bc edb6 a8bd c00d d3bd
000001c0: e0e4 cb3d afdf 7abb 13d3 2d3d 2d0a 37bd
000001d0: 5e29 423d 27b4 2a3c cd04 043e 6b6a ae3c
000001e0: 95f6 acbd a300 abbc 82da 99bc 2583 18bd
000001f0: 644a 83bd 1fa7 0e3d c414 943c 1351 d4bc

fc3.weight f4 [4, 128]
0.6667533 -0.13810305 0.1025585 -0.110201 -0.45094228 -0.18473785 0.30560562 -0.052061874
0.3850711 0.7165198 -0.08417339 0.089253925 -0.06503231 0.227315 -0.28645867 -0.2359558
0.14649515 -0.38828176 -0.34085506 -0.14301625 -0.7258965 0.2901702 -0.38471368 -0.08388684
0.10027382 -0.15742788 -0.06823024 0.11914176 -0.38086182 -0.323602 0.46719944 -0.15482886
0.027137369 -0.061555948 0.1395674 -0.55382067 0.13025816 0.094434895 -0.5184135 0.044167425
-0.034945425 -0.5169793 -0.24978012 0.15047833 -0.11401913 0.05876621 -0.048054438 0.2511891
0.3685562 0.088989176 0.2794867 -0.1547167 0.1579781 0.3011744 0.002210414 -0.04770818
0.06644022 0.15435413 -0.051014014 -0.079491496 -0.1586209 -0.17840439 -0.0068956 0.08400498
0.3614949 -0.15963574 -0.32982776 0.20747237 0.118641205 0.01859502 0.04071771 0.38909408
0.5805755 0.07993604 0.049833257 0.030511716 0.26860103 0.072899744 0.036698904 -0.14652957
-0.34533605 0.076550424 0.18292685 -0.131995 0.032110147 -0.10814831 -0.9281787 -0.35075513
-0.43167806 0.2815724 -0.29647422 -0.22648248 0.072604865 0.3347659 -0.17536256 -0.18087815
-0.12717277 0.087844186 -0.036117196 -0.31118342 -0.022974169 -0.04202841 -0.07066051 -0.08038071
0.18825355 0.06451407 0.14400548 0.34175825 -0.09429494 0.10606604 -0.22280945 0.2586896
0.07552336 0.28204095 -0.30260321 0.59123206 1.1010101 0.36822587 -0.4284682 0.41523322
-0.13961202 0.15226863 0.1172621 0.6352761 0.1640109 0.03512942 -0.5239569 -0.36055148
-0.16203223 -0.122525424 -0.098372795 0.08855408 -0.24530742 -0.35575697 0.003992472 0.35658455
0.42187485 -0.40829343 -0.034426227 -0.36368284 -0.005881112 -0.073659375 -0.1736815 -0.10521645
0.20303921 0.9763399 -0.31756815 -0.28835067 -0.14098017 0.10587359 0.08186631 0.09523797
0.42543185 -0.17565669 -0.24474593 0.12224152 -0.6074111 0.1648408 -0.16939625 -0.072449654
0.15302892 -0.3688386 0.35210574 -0.16039528 -0.54230803 -0.08944192 -0.7055032 -0.025037618
0.35706583 0.04756777 -0.15392926 0.29922774 0.034940362 -0.12779689 0.20813689 -0.30302426
0.3139663 0.13511229 -0.055324737 -0.08316544 0.0199221 0.08988994 -0.23468944 0.070576504
-0.16399735 -0.056332838 0.073543295 0.43422097 0.04511136 -0.46377754 -0.23513874 0.1054101
-0.06136757 0.12705514 0.08146704 0.022873756 0.08711683 0.35186714 0.09468817 -0.30406618
0.0517348 -0.44177568 0.38087872 -0.26601157 -0.76861566 0.17355588 0.049082827 0.01864622
-0.24683951 -0.1345869 0.055191252 0.7991381 -0.22727709 -0.37422296 0.34087285 -0.34715354
0.06920694 0.24295828 0.47560072 0.59611726 0.09224163 -0.15042034 0.12583882 -0.11615141
0.34830672 0.13357335 -0.03872291 0.11038187 -0.064505175 0.11398625 0.021259721 -0.44974536
-0.4731107 -0.05379989 -0.21750432 0.22877575 0.01827096 -0.17207313 -0.10626138 0.90233105
0.014418927 -0.13835572 -0.6355696 -0.08821191 0.12801223 0.0070048636 -0.33435345 -0.15490095
0.21994734 -0.23197222 -0.20409983 -0.49413002 -0.23029467 -0.0025472753 0.89147335 0.292238
00000000: 58b0 2a3f e36a 0dbe 310a d23d 10b1 e1bd
00000010: e8e1 e6be eb2b 3dbe 5778 9c3e d53e 55bd
00000020: 0a28 c53e d76d 373f 1963 acbd c3ca b63d
00000030: a92f 85bd 43c5 683e b6aa 92be 669e 71be
00000040: d302 163e decc c6be 8e84 aebe da72 12be
00000050: 5ad4 39bf 3091 943e 31f9 c4be ddcc abbd
00000060: 5c5c cd3d c634 21be 4cbc 8bbd 9800 f43d
00000070: 5200 c3be 29af a5be c434 ef3e 758b 1ebe
00000080: 304f de3c 1722 7cbd c2ea 0e3e 31c7 0dbf
00000090: 6562 053e 1567 c13d bfb6 04bf e7e8 343d
000000a0: ef22 0fbd c158 04bf 5cc6 7fbe fe16 1a3e
000000b0: dd82 e9bd d6b4 703d bbd4 44bd dc9b 803e
000000c0: 66b3 bc3e f53f b63d e118 8f3e 0e6e 1ebe
000000d0: 03c5 213e 8833 9a3e 98dc 103b a769 43bd
000000e0: cf11 883d 020f 1e3e 12f4 50bd 70cc a2bd
000000f0: 846d 22be a4af 36be 7cf4 e1bb ce0a ac3d
00000100: dc15 b93e 8d77 23be 2fdf a8be a373 543e
00000110: 29fa f23d 9554 983c 9dc7 263d 5737 c73e
00000120: 99a0 143f 82b5 a33d f51d 4c3d b5f3 f93c
00000130: 1386 893e 764c 953d 9751 163d d90b 16be
00000140: e3cf b0be 78c6 9c3d 2d51 3b3e b329 07be
00000150: ee85 033d dc7c ddbd 1f9d 6dbf 2d96 b3be
00000160: e804 ddbe 422a 903e 78cb 97be 06eb 67be
00000170: dcb1 943d 7066 ab3e 3e92 33be 1f38 39be
00000180: 9439 02be a7e7 b33d a0ef 13bd 6f53 9fbe
00000190: 5334 bcbc fb25 2cbd 75b6 90bd a49e a4bd
000001a0: 8ac5 403e f41f 843d 2c76 133e f0fa ae3e
000001b0: b51d c1bd 2739 d93d 2928 64be f772 843e
000001c0: feab 9a3d ac67 903e cfee 9abe fc5a 173f
000001d0: e6ed 8c3f 1a88 bc3e 2f60 dbbe 7399 d43e
000001e0: 74f6 0ebe 4fec 1b3e 1d27 f03d 74a1 223f
000001f0: 79f2 273e dee3 0f3d 0a22 06bf 349a b8be
00000200: c7eb 25be 9cee fabd ad77 c9bd d75b b53d
00000210: de31 7bbe c725 b6be 48d3 823b 4092 b63e
00000220: fbff d73e d60b d1be 8402 0dbd a334 babe
00000230: 58b6 c0bb bada 96bd 90d9 31be b97b d7bd
00000240: 83e9 4f3e 69f1 793f 4b98 a2be b3a2 93be
00000250: 1b5d 10be 41d4 d83d 86a9 a73d 200c c33d
00000260: 34d2 d93e 59df 33be ad9e 7abe c359 fa3d
00000270: 4b7f 1bbf 07cc 283e 3676 2dbe 7c60 94bd
00000280: 9db3 1c3e 6ad8 bcbe 3447 b43e a93e 24be
00000290: b3d4 0abf 532d b7bd dc9b 34bf b11b cdbc
000002a0: 55d1 b63e 6cd6 423d a29f 1dbe 6134 993e
000002b0: a01d 0f3d 30dd 02be d621 553e ff25 9bbe
000002c0: 31c0 a03e e05a 0a3e 319c 62bd a452 aabd
000002d0: ac33 a33c 3818 b83d 6e52 70be 6a8a 903d
000002e0: ecee 27be 43bd 66bd de9d 963d 3652 de3e
000002f0: b0c6 383d 4074 edbe 36c8 70be 40e1 d73d
00000300: 905c 7bbd be1a 023e 31d8 a63d be61 bb3c
00000310: 4f6a b23d ee27 b43e dfeb c13d 90ae 9bbe
00000320: dfe7 533d 6c30 e2be 8902 c33e ab32 88be
00000330: ffc3 44bf a2b8 313e 130b 493d f5bf 983c
00000340: 7fc3 7cbe 26d1 09be 3910 623d 5194 4c3f
00000350: 53bb 68be 279a bfbe e386 ae3e 1cbe b1be
00000360: 5ebc 8d3d 0eca 783e f081 f33e 249b 183f
00000370: 2ee9 bc3d ca07 1abe e4db 003e cae0 edbd
00000380: 4255 b23e 74c7 083e ea9b 1ebd e40f e23d
00000390: 4a1b 84bd 9f71 e93d de28 ae3c 0645 e6be
000003a0: 913b f2be 465d 5cbd 74b9 5ebe 3144 6a3e
000003b0: fbac 953c f033 30be 919f d9bd 2bff 663f
000003c0: 5d3d 6c3c 1fad 0dbe b0b4 22bf 72a8 b4bd
000003d0: a315 033e 0e89 e53b 6030 abbe 5b9e 1ebe
000003e0: e039 613e 208a 6dbe 8cff 50be 9cfe fcbe
000003f0: 5ed2 6bbe 30f0 26bb 9937 643f 38a0 953e

fc3.bias f4 [4]
0.022494556 -0.061468877 -0.01838429 0.008689965
00000000: 8146 b83c cac6 7bbd a79a 96bc 5b60 0e3c
