Continuous Control/checkpoint_critic.pth (torch_old, 61120 bytes, 7 tensors)

fcs1.weight f4 [128, 33]
-0.0036762573 -0.08134537 -0.43342263 0.06164436 0.09406527 0.054945003 0.12541375 -0.035264578
0.0198171 0.3133815 -0.035893783 0.019127987 -0.06978115 0.1310729 0.13652577 0.40522614
0.1602925 0.032133665 0.014468457 -0.08292486 -0.063417934 0.042556725 -0.050525535 -0.37700072
-0.076030426 0.028348317 -0.28324515 0.16030636 -0.31234857 -0.057713807 -0.22634484 -0.07924938
-1.4337739 0.0151029 0.028688593 -0.059855882 0.09359376 0.122080415 -0.013852496 0.100724
0.008751146 0.00928187 0.06482604 0.0020708796 -0.00011869259 0.018244704 -0.022990324 -0.023560714
0.10545422 0.023366967 -0.0065963846 0.01974834 3.0558567e-05 -0.0021423812 -0.0050623976 -0.03033052
0.013341172 -0.001637621 0.021375068 0.13946652 0.49731636 -0.11598383 0.0664128 -0.46463332
-0.07585931 3.5416584 -0.48768693 -0.2501948 -0.28087664 0.014412653 0.15746634 -0.10786534
0.1569385 0.07430997 -0.037980925 -0.49781275 0.07483324 -0.11417412 -0.010869876 0.095341355
0.12547696 0.06844725 -0.07991282 -0.02663313 -0.1003142 0.014266745 0.004922196 -0.29360673
-0.027527267 -0.11729376 0.10251572 -0.23220219 0.121433645 0.24234922 0.076450385 -0.032480437
-0.2672471 -0.030925028 -0.20577444 -0.11849228 -0.009000323 0.36304736 -0.09791953 -0.34876588
-0.21032846 -0.081583336 0.14867352 0.47669923 -0.19751939 -0.0055154087 -0.10128431 -0.016697278
0.3301947 0.082578234 -0.1351444 0.028579138 0.072778404 0.26134443 0.12531033 0.023710243
0.0569584 -0.094980694 -0.008026015 0.052778903 -0.18249144 -0.16653688 0.21356425 -0.28587395
0.05906699 -0.2790295 0.0094843805 0.42418694 0.015304577 -0.53675294 0.4839794 0.065649636
0.24665433 0.22929528 -0.17312692 0.33097175 -0.056482613 -0.27290744 0.010662408 -0.01446047
0.20194922 -0.070425056 0.1527602 -0.45284796 -0.020526953 0.1120458 -0.08749004 -0.062289957
-0.05054993 0.07614244 0.22293568 0.2326357 -0.14666529 -0.14937912 0.13090089 0.39960796
0.07685357 0.0033519939 -0.43512738 0.021108672 -0.21413358 -0.16856281 0.0345338 0.59741473
0.1320661 -0.2141157 -0.053137813 -0.0141314855 -0.059672717 0.03130765 -0.0019478196 -0.030452993
0.0030857308 0.011822531 0.35982683 0.033408236 -0.8532435 -0.09929422 0.021083532 -0.04565755
-0.05334091 -0.004386852 -0.0030500477 0.0026364557 0.10566377 0.04042538 -0.08056091 -0.16780192
0.17486489 0.54776686 -0.07902194 -0.22070596 -0.058479983 0.42339924 0.2629726 0.22619309
0.4098792 -0.035659917 -0.021992654 0.1929449 -0.24703537 -0.114718206 -0.047822777 0.15098134
-0.08858706 0.06826588 0.14879346 -0.4635768 -0.21235311 -0.47497702 0.14245932 0.022309082
-0.082392916 0.014446716 -0.028452957 -0.057115436 0.09459667 -0.10840833 -0.18613899 -0.29782233
0.19230817 0.46266177 0.20528537 -0.0876056 -0.43148687 0.05900935 -0.7374203 -0.5383696
0.12566075 0.07217886 0.15091005 0.15041593 -0.15381406 0.3501953 -0.058489554 0.006556011
0.16157313 -0.15225346 0.0026281623 -0.16266473 0.476657 0.004952211 -0.36508983 -0.12846136
-0.054400463 0.15435421 0.1021698 -0.007739533 -0.027642185 0.081909895 0.06610419 0.09961776
00000000: 5ded 70bb 6798 a6bd 92e9 ddbe cc7e 7c3d
00000010: 4ba5 c03d 030e 613d 766c 003e 9771 10bd
00000020: 7957 a23c 8a73 a03e 5c05 13bd 4cb2 9c3c
00000030: 6be9 8ebd f937 063e 69cd 0b3e cd79 cf3e
00000040: b823 243e 979e 033d 1b0d 6d3c 82d4 a9bd
00000050: 43e1 81bd f64f 2e3d ddf3 4ebd 3d06 c1be
00000060: d7b5 9bbd bb3a e83c 8205 91be 5a27 243e
00000070: 27ec 9fbe 5065 6cbd f1c6 67be 804d a2bd
00000080: e785 b7bf 2772 773c 5704 eb3c 712b 75bd
00000090: 16ae bf3d 4c05 fa3d 94f5 62bc 6248 ce3d
000000a0: f760 0f3c fc12 183c 84c3 843d 98b7 073b
000000b0: 99ea f8b8 eb75 953c 3456 bcbc 6602 c1bc
000000c0: 62f8 d73d 156c bf3c 7c26 d8bb 45c7 a13c
000000d0: 032c 0038 3167 0cbb 78e2 a5bb b677 f8bc
000000e0: ee94 5a3c 71a5 d6ba c41a af3c 50d0 0e3e
000000f0: 40a0 fe3e ee88 edbd 6f03 883d 6be4 edbe
00000100: 205c 9bbd 88aa 6240 1ab2 f9be 8819 80be
00000110: 10cf 8fbe 0c23 6c3c db3e 213e 81e8 dcbd
00000120: 7cb4 203e d32f 983d e391 1bbd 50e1 febe
00000130: 2b42 993d 1fd4 e9bd 9017 32bc 5442 c33d
00000140: 087d 003e 122e 8c3d 55a9 a3bd b92d dabc
00000150: 8871 cdbd 11bf 693c 5f4a a13b 9f53 96be
00000160: dd80 e1bc b637 f0bd c3f3 d13d 69c6 6dbe
00000170: 34b2 f83d 652a 783e 0592 9c3d 350a 05bd
00000180: 9dd4 88be 7c56 fdbc 89b6 52be 15ac f2bd
00000190: 1776 13bc 58e1 b93e 098a c8bd 7191 b2be
000001a0: 5860 57be 2a15 a7bd df3d 183e ec11 f43e
000001b0: 8642 4abe 9aba b4bb 266e cfbd bbc8 88bc
000001c0: 480f a93e c71e a93d 4b63 0abe cc1e ea3c
000001d0: d80c 953d f0ce 853e 5a51 003e fc3b c23c
000001e0: 364d 693d 3d85 c2bd 8c7f 03bc b12e 583d
000001f0: 09df 3abe a588 2abe 96b0 5a3e 125e 92be
00000200: 3af0 713d f4dc 8ebe 6064 1b3c 082f d93e
00000210: 0cc0 7a3c a468 09bf 26cc f73e 5173 863d
00000220: f492 7c3e 62cc 6a3e 2f48 31be 2175 a93e
00000230: 505a 67bd 86ba 8bbe 61b1 2e3c 9beb 6cbc
00000240: c7cb 4e3e 033b 90bd 2b6d 1c3e b0db e7be
00000250: 2428 a8bc 4578 e53d fa2d b3bd c123 7fbd
00000260: 720d 4fbd 91f0 9b3d 4049 643e 0e38 6e3e
00000270: 6d2f 16be d7f6 18be e20a 063e 6a99 cc3e
00000280: 6865 9d3d 20ad 5b3b 04c9 debe 18ec ac3c
00000290: d545 5bbe bb9b 2cbe 5073 0d3d 2cf0 183f
000002a0: 563c 073e 2541 5bbe 09a7 59bd bf87 67bc
000002b0: 616b 74bd 733c 003d fb4d ffba 8e78 f9bc
000002c0: f939 4a3b 4ab3 413c 393b b83e 13d7 083d
000002d0: 2b6e 5abf c55a cbbd 5fb7 ac3c 6903 3bbd
000002e0: ff7b 5abd 95bf 8fbb 4fe3 47bb 63c8 2c3b
000002f0: 3f66 d83d 1595 253d 1efd a4bd 44d4 2bbe
00000300: c80f 333e 733a 0c3f 41d6 a1bd be00 62be
00000310: b588 6fbd c9c7 d83e 58a4 863e 299f 673e
00000320: b0db d13e 2210 12bd f029 b4bc 5993 453e
00000330: d7f6 7cbe 61f1 eabd d1e1 43bd da9a 1a3e
00000340: 226d b5bd fbce 8b3d 505d 183e f059 edbe
00000350: 1873 59be 3030 f3be dbe0 113e 89c1 b63c
00000360: 9ebd a8bd ebb1 6c3c 2d16 e9bc e0f1 69bd
00000370: e6bb c13d 3005 debd 389b 3ebe 2b7c 98be
00000380: 6fec 443e 01e2 ec3e 5436 523e 916a b3bd
00000390: d9eb dcbe cab3 713d 94c7 3cbf 97d2 09bf
000003a0: 36ad 003e 83d2 933d 2a88 1a3e a206 1a3e
000003b0: 6f81 1dbe cc4c b33e be92 6fbd ced3 d63b
000003c0: 6d73 253e 55e8 1bbe 3f3d 2c3b 9591 26be
000003d0: 630c f43e 2846 a23b 0eed babe 608b 03be
000003e0: 05d3 5ebd 080f 1e3e 663e d13d e99b fdbb
000003f0: dd71 e2bc 60c0 a73d a261 873d 6504 cc3d

fcs1.bias f4 [128]
-0.16646343 -0.35632196 -0.06782508 -0.078248896 -0.44869483 -0.17987168 -0.5892118 -0.5079926
0.4191588 -0.29871464 -0.23180093 -0.5939544 -0.74067575 -0.63431394 -0.6965889 -0.286625
-0.32556146 -0.21875268 -0.1168949 0.3046421 -0.4650863 -0.017251134 0.04476117 0.03537897
-0.37585354 -0.5033183 -0.07610866 -0.02113971 -0.104289144 -0.6368065 -0.53283936 -0.6549713
0.03698613 -0.44814932 -0.5511024 0.0804007 -0.096402556 -0.87190706 -0.15548466 -0.21164152
-0.35471123 -0.2617568 -0.6541196 -0.47125778 -0.31622812 -0.62026054 -0.71875536 -0.42600024
-0.25409353 0.13468899 -1.0416825 -0.9828505 -1.1264173 -1.0577832 -0.7410748 -0.58303016
-0.19361004 -0.0054120505 -0.72185534 -0.09737488 0.3708307 -0.41588685 -0.42276397 -0.2819474
0.27863932 0.2675077 -0.031777326 -0.6535338 0.02271116 -0.15634182 -0.6700937 -0.32388654
-0.3580881 0.2554155 -0.4175012 -0.533576 0.08269451 -0.5708312 -0.354629 -0.43380994
-0.746405 -0.7941099 -0.29398942 -0.33465058 -0.3857812 0.06931268 -0.17482343 -0.41348475
-0.33863616 -0.31087586 0.2820764 -0.3845414 -0.19557758 -0.19427472 -0.33047855 0.06384604
-0.11964966 0.10888401 -0.24389823 0.02571952 -0.119566865 -0.34475088 -0.60695064 -0.2020512
-0.29179105 -0.08279378 0.078344844 -0.27688578 -0.4630892 -0.72918344 -0.24629016 -0.4805103
-0.30517226 -0.4368281 -0.71077174 -0.0652948 0.034189202 -0.12753254 0.09043601 -0.11964089
-0.23606992 0.060589157 -0.15443209 -0.4056034 -0.4779959 -0.015947288 -0.71012884 0.069756284
00000000: 6475 2abe d56f b6be e0e7 8abd f540 a0bd
00000010: 54bb e5be 4830 38be 96d6 16bf ce0b 02bf
00000020: fb9b d63e 20f1 98be 395d 6dbe 650d 18bf
00000030: ed9c 3dbf 6662 22bf a653 32bf 83c0 92be
00000040: feaf a6be b400 60be 9866 efbd 0dfa 9b3e
00000050: cb1f eebe 4052 8dbc 7d57 373d 8ae9 103d
00000060: e06f c0be 78d9 00bf dbde 9bbd 2f2d adbc
00000070: 8c95 d5bd c005 23bf 2968 08bf 33ac 27bf
00000080: c57e 173d d473 e5be 0c15 0dbf 1fa9 a43d
00000090: b46e c5bd 4d35 5fbf 5f37 1fbe 8eb8 58be
000000a0: b69c b5be fd04 86be 6274 27bf b348 f1be
000000b0: a7e8 a1be 65c9 1ebf 5a00 38bf b41c dabe
000000c0: 8c18 82be e9eb 093e da55 85bf 179c 7bbf
000000d0: 712e 90bf 7165 87bf 14b7 3dbf 7741 15bf
000000e0: b641 46be 9257 b1bb 83cb 38bf 7b6c c7bd
000000f0: 86dd bd3e 1fef d4be 8574 d8be 695b 90be
00000100: d0a9 8e3e c5f6 883e f128 02bd fe4d 27bf
00000110: c10c ba3c 1218 20be 438b 2bbf 75d4 a5be
00000120: 5357 b7be d2c5 823e b8c2 d5be 7098 08bf
00000130: bd5b a93d fe21 12bf ef91 b5be 561c debe
00000140: 6614 3fbf c94a 4bbf c885 96be 5257 abbe
00000150: 1d85 c5be cef3 8d3d ea04 33be 46b4 d3be
00000160: b861 adbe 1f2b 9fbe 516c 903e 9ce2 c4be
00000170: 7d45 48be f4ef 46be 7c34 a9be b6c1 823d
00000180: e20a f5bd 94fe de3d 75c0 79be beb1 d23c
00000190: 79df f4bd 3083 b0be 1e61 1bbf 83e6 4ebe
000001a0: a365 95be c98f a9bd 4373 a03d f9c3 8dbe
000001b0: 071a edbe c4ab 3abf 7d33 7cbe 7205 f6be
000001c0: 8a3f 9cbe efa7 dfbe 23f5 35bf 48b9 85bd
000001d0: fa09 0c3d e497 02be 8436 b93d 4806 f5bd
000001e0: 50bc 71be 562c 783d 7223 1ebe 40ab cfbe
000001f0: e1bb f4be e3a3 82bc 01cb 35bf 62dc 8e3d

fc2.weight f4 [64, 132]
0.3637615 -0.10375421 -0.048785448 -0.088856086 -0.024525447 -0.094329804 0.032279354 -0.5493034
0.10028482 0.045717902 0.2614968 -1.2405151 -0.05658516 0.1484282 -0.064417526 -0.15003736
0.42859772 0.11824718 -0.4752856 0.08719908 0.4069443 -0.15102698 -0.05094882 -0.20045722
-1.1711718 -0.14920147 -0.5332821 -0.17304921 -0.31417227 0.024286987 -0.29328775 0.36282918
-0.5127473 -0.07710307 0.10591511 -0.5801161 -0.32997924 -0.7141726 -0.124587424 -0.43231127
0.031967357 0.11659077 0.09220226 -0.098424874 -0.8249228 -0.11607422 0.59444994 -0.20541264
-0.4616705 0.07930944 0.1450858 0.2921048 0.21959937 -0.5682619 -0.40122107 -0.19046406
0.10695393 0.22157449 0.34539956 0.012436025 0.32757324 0.7126772 0.21278174 0.34652218
0.2210845 0.29106534 0.17001116 0.32184246 0.064871006 0.004631612 0.3668334 0.37154475
0.42343795 -0.10137702 0.020998351 -0.10332375 -0.047267206 -0.1430622 -0.47080937 0.13262157
-0.026595019 -0.2694017 -0.013818184 0.08354034 0.57288325 0.51835686 0.1584493 0.03315648
-0.032102052 0.66216964 -0.099207945 0.08341883 -0.26311135 0.03685297 -0.3809451 -0.072918765
0.07087425 0.023501217 0.45755085 0.04393396 -0.018458689 -0.06490107 0.022414245 -0.4038215
0.10303629 -0.35410058 0.03771357 -0.64938545 -0.109930016 0.11040352 -0.39814597 -0.005975905
-0.07528032 -0.62369066 -0.21256217 0.23688549 0.19104216 -0.6148285 0.29401243 0.009499022
-0.18451802 0.023137454 -0.66016173 -0.4585562 0.14152679 -0.3211896 0.6172282 -0.104875356
0.21354097 -0.22122844 0.27989417 -0.098081104 -0.24093094 -0.75845605 0.31706852 -0.5077391
0.0373852 0.16270094 0.13759255 0.2416737 0.008648835 -0.34677738 0.0009989009 0.019878363
-0.89163005 -0.44224107 0.17653202 -0.6342651 -0.12609875 0.13006899 -0.15956894 0.04787436
-0.03352035 0.1451621 -0.2821674 0.13326333 -0.139239 -0.15679985 -0.067953885 -0.2993037
0.1350648 0.01699142 -0.34574565 -0.6136853 -0.23003462 -0.049707014 -0.14290942 -0.26888084
-0.2918696 -0.29750943 0.3319711 -0.07363069 -0.19470751 0.07801476 0.13936053 -0.62428683
-0.38378623 0.7264611 -0.18320325 -0.71266526 0.33382684 0.0115923295 0.193969 0.26175538
-0.30755642 0.24654043 0.4569501 -0.15788768 0.079713546 -0.124151915 -0.14231935 -0.07590235
0.1265168 -0.03744926 0.070666976 -0.011130188 -0.07605342 0.26178023 0.17007968 -0.21319428
0.17829075 0.64845604 0.17906615 0.11270431 0.13272916 0.06591915 0.41230205 -0.13864228
-0.058166616 0.15326555 0.05777437 0.16533661 0.2422311 0.012124976 -0.13455316 0.03903171
0.25593778 0.38086775 -0.039973967 0.38635513 -0.04597106 0.19727844 0.13238451 0.07007124
0.27191573 -0.0077538067 -0.17375034 -0.4982644 -0.08183941 0.1863892 0.111505315 -0.48471597
0.077332936 0.049783133 -0.44274655 -0.6392039 0.0511534 0.1479707 0.25981548 -0.23616211
0.0204972 -0.33621967 0.08993454 0.027499722 0.19090009 0.35957336 0.3604612 0.21780466
-0.1613278 -0.5498383 -0.16228196 -0.46292284 -0.23398452 -0.03460768 0.12141205 0.5016095
00000000: f33e ba3e 167d d4bd 40d3 47bd 2efa b5bd
00000010: 97e9 c8bc fc2f c1bd 5b37 043d 269f 0cbf
00000020: 2162 cd3d b242 3b3d e9e2 853e 33c9 9ebf
00000030: d7c5 67bd 90fd 173e 56ed 83bd 65a3 19be
00000040: 2971 db3e 942b f23d a258 f3be 6e95 b23d
00000050: 015b d03e d1a6 1abe b6af 50bd a844 4dbe
00000060: f5e8 95bf 45c8 18be 2d85 08bf d033 31be
00000070: 30db a0be 81f5 c63c d029 96be bfc4 b93e
00000080: 6843 03bf 37e8 9dbd 05ea d83d 7d82 14bf
00000090: 0af3 a8be 04d4 36bf b127 ffbd e757 ddbe
000000a0: 34f0 023d 24c7 ee3d 8ad4 bc3d fb92 c9bd
000000b0: 242e 53bf 52b8 edbd df2d 183f b157 52be
000000c0: 1360 ecbe fd6c a23d 5f91 143e c38e 953e
000000d0: a8de 603e 9d79 11bf d96c cdbe 0309 43be
000000e0: a90a db3d 6ce4 623e 36d8 b03e 78c0 4b3c
000000f0: aeb7 a73e 0372 363f 75e3 593e 5b6b b13e
00000100: fa63 623e 8406 953e 6817 2e3e 89c8 a43e
00000110: 17db 843d c7c4 973b 96d1 bb3e 1d3b be3e
00000120: dccc d83e c19e cfbd bc04 ac3c 679b d3bd
00000130: 429b 41bd e67e 12be ed0d f1be f3cd 073e
00000140: ccdd d9bc 05ef 89be aa65 62bc 3317 ab3d
00000150: 7aa8 123f 09b3 043f 8940 223e 17cf 073d
00000160: 717d 03bd f383 293f 892d cbbd 7ed7 aa3d
00000170: 88b6 86be 24f3 163d 3c0b c3be 6f56 95bd
00000180: 8526 913d a085 c03c 1b44 ea3e 19f4 333d
00000190: ad36 97bc daea 84bd 149e b73c b1c1 cebe
000001a0: b104 d33d ac4c b5be 8b79 1a3d 203e 26bf
000001b0: fd22 e1bd 3e1b e23d cad9 cbbe 86d1 c3bb
000001c0: 922c 9abd 31aa 1fbf e6a9 59be 1c92 723e
000001d0: 8ea0 433e 6765 1dbf cc88 963e c9a1 1b3c
000001e0: 4bf2 3cbe c28a bd3c 5c00 29bf e1c7 eabe
000001f0: 66ec 103e f772 a4be ab02 1e3f e4c8 d6bd
00000200: 7caa 5a3e b589 62be 4a4e 8f3e bfde c8bd
00000210: 9ab6 76be 2d2a 42bf ce56 a23e 31fb 01bf
00000220: 3921 193d 139b 263e 10e5 0c3e 4f79 773e
00000230: d8b3 0d3c ce8c b1be 8ded 823a f3d7 a23c
00000240: de41 64bf 6c6d e2be cfc4 343e 335f 22bf
00000250: 0820 01be ce30 053e 0a66 23be e817 443d
00000260: a24c 09bd 60a5 143e 3f78 90be 2f76 083e
00000270: ab94 0ebe 2490 20be 682b 8bbd 563e 99be
00000280: 6d4e 0a3e 9731 8b3c 9305 b1be 7b1a 1dbf
00000290: 328e 6bbe 9599 4bbd d956 12be c0aa 89be
000002a0: ef6f 95be 2853 98be 1ef8 a93e b0cb 96bd
000002b0: 6861 47be 34c6 9f3d 87b4 0e3e 43d1 1fbf
000002c0: a17f c4be 5bf9 393f a299 3bbe 3b71 36bf
000002d0: 5aeb aa3e c1ed 3d3c cf9f 463e cd04 863e
000002e0: 0978 9dbe 1875 7c3e 5df5 e93e 4fad 21be
000002f0: db40 a33d 5c43 febd 2abc 11be b172 9bbd
00000300: 9f8d 013e 6564 19bd d9b9 903d 645b 36bc
00000310: e5c1 9bbd 0f08 863e 5e29 2e3e 9a4f 5abe
00000320: da91 363e 3701 263f 1e5d 373e 84d1 e63d
00000330: 27ea 073e 9f00 873d 4119 d33e 3ef8 0dbe
00000340: 1e40 6ebd a5f1 1c3e d1a4 6c3d 004e 293e
00000350: 6e0b 783e d6a7 463c 4ec8 09be b7df 1f3d
00000360: 470a 833e 1901 c33e bebb 23bd 57d0 c53e
00000370: 264c 3cbd 5c03 4a3e ce8f 073e 8381 8f3d
00000380: 8a38 8b3e a513 febb 9ceb 31be 831c ffbe
00000390: 6c9b a7bd cfdc 3e3e e65c e43d b12c f8be
000003a0: bb60 9e3d 66e9 4b3d adaf e2be dea2 23bf
000003b0: 3a86 513d a285 173e 8906 853e 7bd4 71be
000003c0: bee9 a73c fc24 acbe 9a2f b83d 1947 e13c
000003d0: 507b 433e 001a b83e 5f8e b83e 2f08 5f3e
000003e0: 1d33 25be 34c2 0cbf 3e2d 26be 3904 edbe
000003f0: a399 6fbe c8c0 0dbd e2a6 f83d 7b69 003f

fc2.bias f4 [64]
-0.6425324 0.5879773 -0.8612712 0.17989634 -0.26745823 -0.33235323 -0.7059788 0.65843964
0.6082183 -0.50487894 0.90768355 0.8743744 -0.19891115 0.8430961 -0.4064797 0.76380366
0.19811013 0.8933589 -0.9489613 0.19308068 -0.61817646 -0.4613211 0.61068946 0.5008206
0.30883238 0.117269225 -0.18840764 -0.8673553 -0.6609673 -0.874144 -0.23680271 -0.40361676
-0.2973534 -0.25357798 0.3969228 -0.96757495 0.45419934 -0.3052202 -0.69897485 0.6279454
-0.8511214 -0.081297755 -0.5401038 0.4927613 0.88129073 -0.5771445 -0.34518057 -0.54628426
0.54884446 0.8594962 -0.07449171 -0.8642046 -0.84165186 0.72643644 0.16041274 0.35286108
-0.29001778 0.75145257 -0.5821793 0.7282328 0.25405198 0.33629453 0.017253038 -0.81167746
00000000: 017d 24bf ae85 163f 457c 5cbf bf36 383e
00000010: 49f0 88be 342a aabe 07bb 34bf 808f 283f
00000020: 32b4 1b3f bf3f 01bf f35d 683f 00d7 5f3f
00000030: 5daf 4bbe 25d5 573f 1b1e d0be a388 433f
00000040: 62dd 4a3e 2bb3 643f 21ef 72bf f1b6 453e
00000050: d040 1ebf 4732 ecbe 2556 1c3f c735 003f
00000060: 471f 9e3e d92a f03d efed 40be ff0a 5ebf
00000070: 2735 29bf e7c7 5fbf 697c 72be dba6 cebe
00000080: b43e 98be f9d4 81be 7739 cb3e feb2 77bf
00000090: d18c e83e d245 9cbe 04f0 32bf 08c1 203f
000000a0: 18e3 59bf 707f a6bd 3e44 0abf 364b fc3e
000000b0: 459c 613f bebf 13bf 82bb b0be 49d9 0bbf
000000c0: 1281 0c3f f107 5c3f 1c8f 98bd 833c 5dbf
000000d0: 7f76 57bf bdf7 393f 3d43 243e 35aa b43e
000000e0: 367d 94be 325f 403f b409 15bf 776d 3a3f
000000f0: 1a13 823e cc2e ac3e 3e56 8d3c 18ca 4fbf

fc3.weight f4 [32, 64]
-0.078240395 0.2116673 -0.20220879 -0.0018666018 -0.20903619 -0.3920736 -0.17702474 -0.07664905
0.18771642 0.0103910975 0.08905302 -0.06303086 0.31781605 0.01626461 0.07757595 -0.12890983
0.19779578 0.2911342 -0.24432868 -0.31643218 -0.353121 -0.1927943 -0.02372342 -0.2269523
0.26856664 -0.17799151 -0.042270597 0.12191934 -0.380693 -0.018135551 0.053072974 -0.5060609
-0.02206386 -0.40789127 -0.016671538 -0.06712635 -0.11953995 0.2998664 0.16532177 0.07130749
-0.05417026 0.14341244 -0.06370229 0.09442103 -0.18556239 0.14252102 0.27401164 -0.07835304
0.42386276 -0.014083906 0.011577345 -0.33604693 -0.24992666 -0.017632417 -0.08835724 0.34211072
-0.34253967 0.13034995 0.26558825 -0.062364988 -0.30788693 0.34942985 -0.23578174 0.14137708
-0.10159196 0.2849087 -0.0014828678 0.11022635 -0.1308842 -0.0030700844 -0.25659627 0.022087649
0.25074312 -0.20771973 -0.07583215 0.2329693 -0.10053603 -0.043952778 -0.08818083 -0.101369716
0.046491984 0.038626034 -0.06235449 -0.22563097 -0.3064989 -0.062618196 -0.04513411 -0.0023554533
-0.14179581 -0.1211457 -0.2464142 -0.040598612 -0.28569996 -0.08489308 -0.047893256 -0.05383975
-0.11104786 -0.097149566 0.20742157 0.040255737 0.03214724 -0.15803765 -0.067021266 -0.116593026
-0.0007842664 0.24289607 -0.18107519 0.29060328 -0.13308357 -0.0044164006 -0.11059862 -0.10619702
0.18231466 -0.14458379 0.061256103 -0.123066664 -0.072459854 0.25754356 0.080580026 0.26172963
-0.3281338 -0.16524802 -0.19133255 -0.069433846 0.048797127 0.22173746 -0.37074932 -0.14364004
0.09313695 -0.075777955 -0.526116 -0.0736811 0.12123106 -0.057765927 -0.112680435 -0.032882083
0.2786624 -0.17676114 -0.53331083 0.16651581 0.32251805 -0.5945717 0.19130401 0.17656898
-0.06855105 -0.104280345 0.017300658 0.06474816 0.19772437 -0.23754065 0.15667108 -0.24404915
-0.2728388 -0.057250157 -0.10934624 -0.18367277 0.1102072 -0.020541076 -0.36965436 -0.05118373
-0.18193182 0.07722505 0.12127135 -0.051947355 0.32311916 0.021338118 0.28005108 -0.07632243
0.049574144 0.122771196 0.1782186 -0.46786615 -0.12492882 -0.8688404 -0.11730977 -0.18125445
-0.09826123 -0.34038183 0.20025113 -0.03759819 0.11269801 -0.06844531 -0.023982417 0.048452098
0.031764153 -0.23206693 -0.2527145 -1.4924037 -0.03941223 0.03240083 -0.011748934 -0.22273412
-0.15075701 -0.026403526 0.12691097 -0.035210084 0.1407774 0.14458057 -0.15515307 0.18039809
0.22704184 0.015550684 0.06999306 0.10879987 -0.3294732 -0.15080412 -0.24677572 0.019003522
0.17204496 0.023947902 0.07484073 -0.08731433 -0.27271852 -0.10794964 0.10781398 0.018023724
0.37473702 -0.1671078 -0.058748785 -0.10257907 -0.029972328 -0.021821333 0.0043538343 -0.13221042
-0.11386547 0.13527024 0.005796102 0.013060188 -0.11741437 -0.1499032 -0.122847244 -0.12845857
-0.22187817 0.2587288 -0.04137855 0.10262363 0.3285794 -0.08596374 -0.21445514 -0.10873144
0.11852053 0.047984626 0.23871672 -0.23961525 0.056193806 0.20492579 -0.074054174 -0.12658015
-0.013226025 0.29400772 -0.21264015 -0.06818237 0.07333618 0.17628804 -0.24338557 -0.022509703
00000000: 803c a0bd 50bf 583e d20f 4fbe c3a8 f4ba
00000010: 950d 56be dfbd c8be f945 35be 2dfa 9cbd
00000020: bc38 403e 6c3f 2a3c 6e61 b63d 5316 81bd
00000030: c9b8 a23e 5c3d 853c 24e0 9e3d f000 04be
00000040: fa8a 4a3e 8b0f 953e 4c31 7abe 6603 a2be
00000050: 47cc b4be de6b 45be 9e57 c2bc 2f66 68be
00000060: 9181 893e 6843 36be ef23 2dbd d9b0 f93d
00000070: 31ea c2be 0291 94bc 0c63 593d 358d 01bf
00000080: 45bf b4bc 20d7 d0be c092 88bc 8a79 89bd
00000090: 5cd1 f4bd 1788 993e 1c4a 293e a909 923d
000000a0: a2e1 5dbd b6da 123e 5976 82bd d05f c13d
000000b0: 1104 3ebe 08f1 113e 414b 8c3e 8f77 a0bd
000000c0: 8a04 d93e 2fc0 66bc e8ae 3d3c 580e acbe
000000d0: c6ec 7fbe dc71 90bc a4f4 b4bd 2329 af3e
000000e0: 5c61 afbe 757a 053e 2ffb 873e 6e72 7fbd
000000f0: 5ba3 9dbe 78e8 b23e c570 71be 27c5 103e
00000100: 720f d0bd 8edf 913e c95c c2ba 5abe e13d
00000110: 8206 06be 7833 49bb 9660 83be 28f1 b43c
00000120: 6761 803e 7bb4 54be e34d 9bbd 818f 6e3e
00000130: d6e5 cdbd d407 34bd 2798 b4bd ed9a cfbd
00000140: 616e 3e3d 5536 1e3d 6c67 7fbd ce0b 67be
00000150: 6ced 9cbe f83d 80bd 8bde 38bd f35d 1abb
00000160: ec32 11be 3d1b f8bd 0154 7cbe bb4a 26bd
00000170: 4447 92be 6cdc adbd b82b 44bd 1287 5cbd
00000180: 0f6d e3bd 5af6 c6bd 5266 543e 33e3 243d
00000190: d3ac 033d 9fd4 21be 7242 89bd 53c8 eebd
000001a0: 3a97 4dba bfb9 783e c66b 39be f4c9 943e
000001b0: 0f47 08be 74b7 90bb 8781 e2bd d37d d9bd
000001c0: b2b0 3a3e c60d 14be aee7 7a3d 600a fcbd
000001d0: d565 94bd c0dc 833e 2407 a53d 6d01 863e
000001e0: 2701 a8be c736 29be aeec 43be 5533 8ebd
000001f0: 7fdf 473d 250f 633e dbd2 bdbe 6016 13be
00000200: 96be be3d 7931 9bbd 8aaf 06bf 1ee6 96bd
00000210: fd47 f83d f79b 6cbd 00c5 e6bd 5daf 06bd
00000220: d7ac 8e3e df00 35be 0f87 08bf 1f83 2a3e
00000230: 1621 a53e da35 18bf 33e5 433e 80ce 343e
00000240: 7e64 8cbd ef90 d5bd 1cba 8d3c af9a 843d
00000250: 4278 4a3e db3d 73be 626e 203e 05e8 79be
00000260: 87b1 8bbe 247f 6abd ecf0 dfbd b714 3cbe
00000270: 50b4 e13d c245 a8bc 5643 bdbe 08a6 51bd
00000280: 564c 3abe 2b28 9e3d 1d5d f83d c0c6 54bd
00000290: e06f a53e 47cd ae3c db62 8f3e ef4e 9cbd
000002a0: 420e 4b3d 776f fb3d f07e 363e 278c efbe
000002b0: aeda ffbd 536c 5ebf 1b40 f0bd c49a 39be
000002c0: 2f3d c9bd 8746 aebe a20e 4d3e 8f00 1abd
000002d0: 37ce e63d 0e2d 8cbd c676 c4bc b575 463d
000002e0: 211b 023d f4a2 6dbe cc63 81be 1607 bfbf
000002f0: b86e 21bd bcb6 043d 9a7e 40bc 6a14 64be
00000300: 0c60 1abe 354c d8bc f3f4 013e 7338 10bd
00000310: f327 103e ee0c 143e 72e0 1ebe 47ba 383e
00000320: a87d 683e 4cc8 7e3c 8558 8f3d 77d2 de3d
00000330: b6b0 a8be 656c 1abe c6b2 7cbe 46ad 9b3c
00000340: 8e2c 303e 642e c43c 1946 993d dbd1 b2bd
00000350: c3a1 8bbe b314 ddbd 93cd dc3d 7da6 933c
00000360: 88dd bf3e 4f1e 2bbe 91a2 70bd fa14 d2bd
00000370: 8788 f5bc a7c2 b2bc 9caa 8e3b 2b62 07be
00000380: 4d32 e9bd 4884 0a3e 3aed bd3b 66fa 553c
00000390: f276 f0bd 3980 19be 5697 fbbd a58a 03be
000003a0: 0834 63be 1a78 843e 8e7c 29bd 562c d23d
000003b0: 8f3b a83e c20d b0bd 219a 5bbe 97ae debd
000003c0: e4ba f23d 878b 443d 2872 743e b35d 75be
000003d0: 7a2b 663d 11d8 513e b7a9 97bd 3a9e 01be
000003e0: f8b1 58bc 2e88 963e 57be 59be 33a3 8bbd
000003f0: 4731 963d da84 343e 113a 79be 4566 b8bc

fc3.bias f4 [32]
-0.97751486 1.2558242 0.90885186 1.0599338 0.6894682 1.1419877 0.6907575 1.3276119
-1.4825983 0.17161532 0.7940297 0.8706485 -0.71058923 1.1986384 1.521137 -0.7203704
0.7641955 -0.09589126 1.0553916 0.7657641 1.3047366 0.60974354 0.5919875 0.9045128
-1.5064111 -0.773375 1.484424 0.6116072 -0.5039055 1.0150515 -0.81147987 1.2613313
00000000: 6a3e 7abf d9be a03f 84aa 683f e9ab 873f
00000010: fd80 303f a72c 923f 7cd5 303f 30ef a93f
00000020: c8c5 bdbf edbb 2f3e 8845 4b3f d2e2 5e3f
00000030: 2de9 35bf fc6c 993f 9eb4 c23f 326a 38bf
00000040: 51a2 433f a362 c4bd 1217 873f 1e09 443f
00000050: 9c01 a73f 2718 1c3f 7e8c 173f 278e 673f
00000060: 14d2 c0bf e7fb 45bf 9b01 be3f 4a92 1c3f
00000070: f3ff 00bf 35ed 813f 25bd 4fbf 4e73 a13f

fc4.weight f4 [1, 32]
-0.047482297 0.12124874 0.027751297 0.07054399 0.016692042 0.053109046 0.02440909 0.14991717
-0.10827862 0.11018419 0.03246326 0.024220858 -0.01927205 0.032217864 0.1679682 -0.047183745
0.030677464 -0.071701296 0.0399963 0.021789676 0.042682167 0.025901528 0.013288496 0.012892394
-0.09535306 -0.019993879 0.20948742 0.019098893 -0.02216505 0.02638412 -0.04403823 0.047136653
00000000: cc7c 42bd 4251 f83d b056 e33c 5e79 903d
00000010: c0bd 883c df88 593d 92f5 c73c e383 193e
00000020: 2ec1 ddbd 40a8 e13d 32f8 043d d26a c63c
00000030: 6be0 9dbc e1f6 033d dbff 2b3e be43 41bd
00000040: 4e4f fb3c 21d8 92bd 29d3 233d 4380 b23c
00000050: 7fd3 2e3d 712f d43c feb7 593c 9f3a 533c
00000060: 7748 c3bd 34ca a3bc df83 563e 4875 9c3c
00000070: 7b93 b5bc 8323 d83c 6e61 34bd 5d12 413d
